modelAttempt1_27/best_model.pth (torch, 403746 bytes, 15 tensors)

convs.0.bias f4 [128]
000000 36 db 12 bd 00 00 00 00 4a 2b fe bc 59 d5 f6 3b
       -0.035853587 0.0 -0.031026501 0.0075327572
000010 00 00 00 00 24 05 aa bc 00 00 00 00 00 00 00 00
       0.0 -0.020754404 0.0 0.0
000020 00 00 00 00 00 00 00 00 89 ea 5b bc 00 00 00 00
       0.0 0.0 -0.013422617 0.0
000030 ee b2 6b bc 00 00 00 00 0d d0 eb bc 00 00 00 00
       -0.014385922 0.0 -0.02878573 0.0
000040 00 00 00 00 6b 7f 61 bd 1f f3 0f bd de 22 e3 bc
       0.0 -0.055053156 -0.035143968 -0.027726587
000050 c5 50 03 bd 00 00 00 00 f1 73 b5 bb 00 00 00 00
       -0.03205945 0.0 -0.005537503 0.0
000060 00 00 00 00 00 00 00 00 4f 75 e3 bc 00 00 00 00
       0.0 0.0 -0.027765898 0.0
000070 a2 24 fe bb 44 f9 9a bc 08 74 23 bb 00 00 00 00
       -0.007755832 -0.018917687 -0.0024940986 0.0
000080 b8 e1 23 bd 13 0b dc bc 2e 8b b4 bc 00 00 00 00
       -0.040010184 -0.02686075 -0.022039022 0.0
000090 3f 7e c0 bb 00 00 00 00 00 00 00 00 a0 5b 01 bd
       -0.0058744247 0.0 0.0 -0.03158152
0000a0 05 28 70 bc 00 00 00 00 00 00 00 00 00 00 00 00
       -0.014657979 0.0 0.0 0.0
0000b0 f7 1c 07 bd 00 00 00 00 00 00 00 00 00 00 00 00
       -0.032986607 0.0 0.0 0.0
0000c0 00 00 00 00 ca b5 96 bc 6a 1e b4 bc 00 00 00 00
       0.0 -0.01839723 -0.021987159 0.0
0000d0 24 74 19 bd 7d e6 e8 bc 74 55 e5 bc 00 00 00 00
       -0.037464276 -0.028430218 -0.027994849 0.0
0000e0 90 01 c0 bc b2 d7 c6 bc bd 07 09 bd 00 00 00 00
       -0.023438245 -0.024272773 -0.033454645 0.0
0000f0 00 00 00 00 f7 d5 d7 bc 00 00 00 00 00 00 00 00
       0.0 -0.026347144 0.0 0.0
000100 76 ab 2a bd 10 ab 10 bd 00 00 00 00 00 00 00 00
       -0.041667424 -0.035319388 0.0 0.0
000110 21 55 dd bb 00 00 00 00 d4 1c 27 bd e4 49 96 bc
       -0.006754533 0.0 -0.040798977 -0.01834578
000120 00 00 00 00 00 00 00 00 0a f5 1a bd 81 82 03 bc
       0.0 0.0 -0.037831344 -0.00802672
000130 00 00 00 00 00 00 00 00 00 00 00 00 00 00 00 00
       0.0 0.0 0.0 0.0
000140 00 00 00 00 1a 6a 63 bc b4 b0 cd bc 1f a1 8e bc
       0.0 -0.013880277 -0.025108673 -0.017410813
000150 00 00 00 00 00 00 00 00 00 00 00 00 19 e5 97 bc
       0.0 0.0 0.0 -0.01854186
000160 88 3e c7 bc 00 00 00 00 aa 46 b6 bd 00 00 00 00
       -0.02432181 0.0 -0.08900197 0.0
000170 00 00 00 00 d8 86 91 bc 00 00 00 00 00 00 00 00
       0.0 -0.017764494 0.0 0.0
000180 00 00 00 00 a2 57 5b bd 86 57 2b bd 95 ad 08 bd
       0.0 -0.05355037 -0.041831516 -0.033368666
000190 00 00 00 00 00 00 00 00 00 00 00 00 65 91 c4 bd
       0.0 0.0 0.0 -0.09598044
0001a0 64 6b d5 bc bc bd 1c bd 74 19 0c bd 63 e1 18 bd
       -0.026052184 -0.038266882 -0.03420396 -0.03732432
0001b0 00 00 00 00 00 00 00 00 00 00 00 00 00 00 00 00
       0.0 0.0 0.0 0.0
0001c0 31 9e 12 bd 00 00 00 00 00 00 00 00 00 00 00 00
       -0.035795394 0.0 0.0 0.0
0001d0 00 00 00 00 00 00 00 00 00 00 00 00 7b 36 aa bb
       0.0 0.0 0.0 -0.005194483
0001e0 00 00 00 00 62 c6 04 3c 00 00 00 00 00 00 00 00
       0.0 0.008103939 0.0 0.0
0001f0 00 00 00 00 00 00 00 00 00 00 00 00 00 00 00 00
       0.0 0.0 0.0 0.0

convs.0.lin.weight f4 [128, 1]
000000 ae 12 14 3e 00 51 2f bd 11 a9 1d 3e c3 e1 97 3d
       0.1446025 -0.042801857 0.15396525 0.074161075
000010 08 02 3b be e7 e6 03 3e b9 0d 73 bd 02 4f a9 bd
       -0.18262494 0.12881051 -0.05933926 -0.08267023
000020 64 50 37 be 4d 8d 5b be 85 00 3c 3d 46 f7 40 bd
       -0.1790176 -0.2144062 0.045898933 -0.04711082
000030 9f a6 8d 3d 90 3c 35 be 4b 76 06 3e 0b 1c 22 be
       0.06916546 -0.17698884 0.13131063 -0.1583101
000040 a6 88 18 bd cd de 56 3d 20 e6 9b 3d 0c 28 15 3e
       -0.037239693 0.052458573 0.07612252 0.14566058
000050 bb ae 27 3e 32 1c 2f be eb d7 43 3d b6 fa bd bd
       0.16375248 -0.171006 0.047813337 -0.09276335
000060 65 9b c1 bc 36 4c 25 be c8 14 2c 3e 35 16 22 be
       -0.023633668 -0.16142353 0.16804802 -0.15828784
000070 26 8b dc 3d 13 9e 67 3d 49 a6 8b 3d 54 cb ee bd
       0.10768728 0.056547236 0.06818826 -0.116598755
000080 45 1b 1f 3e 7f e5 9a 3c e9 d4 ab 3c 1e 9e 42 be
       0.15537746 0.01890826 0.020975547 -0.1900563
000090 91 19 af 3d eb 85 04 bd 82 58 ca bd 39 30 1d 3e
       0.08549798 -0.032354277 -0.09880163 0.15350427
0000a0 c1 ee 04 3d 71 5f f4 bd 90 8d df bd 3e be 28 bc
       0.032454256 -0.119322665 -0.10915673 -0.0102992635
0000b0 4f aa b3 3d db ba 61 bd 64 03 fc bd 4f 40 97 bd
       0.08772718 -0.05510984 -0.12305334 -0.07385313
0000c0 32 fc 24 be 3b 8d 6c 3d 80 75 14 3e bc e8 4f be
       -0.1611183 0.057751875 0.14497948 -0.20303625
0000d0 6a 55 12 3d 82 e9 a9 3d d0 00 12 3d 52 4b 9d bd
       0.03572599 0.08296491 0.035645306 -0.07680382
0000e0 52 a2 b7 3d d1 d6 b3 3d 52 a6 44 3d f1 39 1b bd
       0.08966507 0.08781207 0.048010178 -0.037897054
0000f0 9d ea 69 bd 8c 7c 47 3b dd 0c 1c bd 3c 9f 83 bd
       -0.05710851 0.0030439226 -0.038098205 -0.06426856
000100 bb 84 c4 3d d1 3a 19 3e dd e6 ae bc 6c c8 45 bd
       0.09595629 0.14963843 -0.021350319 -0.04828684
000110 03 75 6b bb 18 fa 52 bc 56 51 ca 3c 97 03 2b 3d
       -0.0035927899 -0.01287701 0.024696987 0.04175147
000120 b0 94 48 be 6a ff a2 bd d5 b1 13 3e 58 9e 9a 3d
       -0.1958797 -0.079588726 0.14423306 0.07549733
000130 f6 be 2f bc 89 25 05 be aa 1c 07 be 90 d2 45 be
       -0.010726681 -0.130026 -0.13194528 -0.19318604
000140 da f8 8f bd 60 f1 70 3d 47 a3 e5 3d 68 80 a6 3d
       -0.070298865 0.058823943 0.11212783 0.0812996
000150 28 36 43 be 49 ce 04 be ee 68 0b bd 4c ae 43 3e
       -0.19063628 -0.12969317 -0.034035616 0.19109458
000160 15 84 5d 3c 16 c4 64 bd 17 ee 6a 3d 9b 3a a8 bd
       0.01352026 -0.055851065 0.057355966 -0.08214303
000170 e0 f0 0e be eb 0f 0e 3e 85 d5 c8 bd e5 15 31 bd
       -0.13959074 0.1387326 -0.098063506 -0.04323377
000180 b0 b1 5b be 7f a4 bb 3d 07 8f f8 3d e2 d9 39 3d
       -0.21454501 0.091622345 0.12136655 0.045373805
000190 b2 fc 19 be 12 f5 59 be e3 5c 33 be 31 e6 85 3d
       -0.15037802 -0.21284893 -0.17515902 0.06538046
0001a0 4e ab 9e 3d 4f 2c 12 3e 67 d5 a1 3d 79 f8 88 3c
       0.077475175 0.14274715 0.079020314 0.016720043
0001b0 8e 68 0a bb 89 f3 27 be fc 35 3d be 56 90 4e be
       -0.0021119448 -0.16401495 -0.18477625 -0.20172247
0001c0 52 40 57 3d 2c da d8 bd 9b c7 31 bd e0 30 fe bd
       0.052551575 -0.10588488 -0.04340325 -0.12411666
0001d0 59 f8 20 bd 9c 6f 1b be 23 4d 10 be 13 f1 86 3d
       -0.039299343 -0.15179294 -0.14091925 0.0658895
0001e0 40 44 83 bd 1d 85 11 3e 20 b2 8d bd 8a 00 22 be
       -0.06409502 0.14210935 -0.0691874 -0.15820518
0001f0 34 dc 1b bd ce 1a d6 bd 14 21 87 bd 7b 3d 52 be
       -0.0380518 -0.10454331 -0.06598106 -0.20531265

convs.1.bias f4 [128]
000000 85 37 f4 bb 3a 37 67 bc 5b 2e 00 bd 20 4c c4 bc
       -0.0074529075 -0.014112288 -0.031294208 -0.02396208
000010 00 00 00 00 00 00 00 00 00 00 00 00 00 00 00 00
       0.0 0.0 0.0 0.0
000020 00 00 00 00 d7 5e 3c bc 00 00 00 00 d4 2d 82 bc
       0.0 -0.011497221 0.0 -0.015890993
000030 8a 93 e9 bc 25 c9 c4 bb 00 00 00 00 80 46 14 bc
       -0.028512735 -0.0060054236 0.0 -0.009050012
000040 00 00 00 00 00 00 00 00 00 00 00 00 00 00 00 00
       0.0 0.0 0.0 0.0
000050 00 00 00 00 62 b1 81 bc 6e b6 b1 bb 00 00 00 00
       0.0 -0.015831653 -0.0054233586 0.0
000060 00 00 00 00 55 4b 05 bc 74 e2 52 bb 00 00 00 00
       0.0 -0.008135636 -0.0032178434 0.0
000070 8c 0f 5c bc 00 00 00 00 9c bd 3a bc 00 00 00 00
       -0.013431441 0.0 -0.011397745 0.0
000080 00 00 00 00 00 00 00 00 cc 28 b4 bb 00 00 00 00
       0.0 0.0 -0.0054980274 0.0
000090 db a3 e8 bb 00 00 00 00 7d 3b 9c bc 00 00 00 00
       -0.007099611 0.0 -0.019071335 0.0
0000a0 04 a6 bb bc 09 26 b8 bc 00 00 00 00 ac 88 8a bc
       -0.02290631 -0.022479074 0.0 -0.016910873
0000b0 00 00 00 00 00 00 00 00 00 00 00 00 00 00 00 00
       0.0 0.0 0.0 0.0
0000c0 f8 95 e5 bc e4 25 9c bc 31 75 1c bc 2d af aa bc
       -0.028025612 -0.019061036 -0.009549425 -0.020835483
0000d0 00 00 00 00 00 00 00 00 2e 52 14 bd 9c c8 c4 bb
       0.0 0.0 -0.036211185 -0.00600536
0000e0 00 00 00 00 c4 d7 3a bc f5 62 4c bc 48 c9 c4 bb
       0.0 -0.011403982 -0.012474765 -0.00600544
0000f0 6d fa fb bc be 55 ab bb 00 00 00 00 5c fb 87 bc
       -0.03075906 -0.005228727 0.0 -0.01659935
000100 bb f5 8b bb 05 5b 72 bc 11 34 03 bd 2d 07 e5 bc
       -0.0042712367 -0.014792209 -0.032032076 -0.027957523
000110 8c fa bf bc f2 bb 9a bc 00 00 00 00 da d2 69 bc
       -0.0234349 -0.018888447 0.0 -0.014271462
000120 e4 d0 10 bd 00 00 00 00 68 de 39 bc 00 00 00 00
       -0.035355464 0.0 -0.01134453 0.0
000130 00 00 00 00 e3 a2 f2 bb d6 40 e7 bc 00 00 00 00
       0.0 -0.0074046715 -0.028229158 0.0
000140 79 df 00 bd 43 71 52 bc 6b 2d 17 bc 18 05 cc 3a
       -0.03146312 -0.0128443865 -0.009227137 0.0015565483
000150 00 00 00 00 f4 84 61 bc 00 00 00 00 00 00 00 00
       0.0 -0.013764609 0.0 0.0
000160 37 3f 55 bc 00 00 00 00 00 00 00 00 87 32 48 bc
       -0.01301556 0.0 0.0 -0.012219078
000170 5a ec 50 bb 00 00 00 00 00 00 00 00 da fe a8 bc
       -0.0031879158 0.0 0.0 -0.020629335
000180 00 00 00 00 00 00 00 00 33 a2 c1 bb b6 70 ae bc
       0.0 0.0 -0.005909228 -0.02129398
000190 00 00 00 00 00 00 00 00 c6 d5 38 bc 00 00 00 00
       0.0 0.0 -0.011281436 0.0
0001a0 fb 66 87 bc 00 00 00 00 17 37 94 bc 14 95 36 bc
       -0.016528597 0.0 -0.018092675 -0.011143941
0001b0 83 14 53 bc e8 3b 8b bc fa b9 8a bc 84 ac 6a bc
       -0.012883308 -0.016996339 -0.016934384 -0.0143233575
0001c0 c3 52 dd bc 00 00 00 00 2b 45 bd bc 00 00 00 00
       -0.027017003 0.0 -0.02310427 0.0
0001d0 32 f8 19 bc 1e 97 10 bc 3a cb 6e bb bc 3b 0a bd
       -0.009397553 -0.008825092 -0.003643705 -0.033748373
0001e0 00 00 00 00 95 e9 8c bc 8c f7 5d bc 4a 01 4e bc
       0.0 -0.017201224 -0.013547789 -0.0125735495
0001f0 00 00 00 00 cd 1e 88 bc ca f3 3b bc 00 00 00 00
       0.0 -0.01661625 -0.011471698 0.0

convs.1.lin.weight f4 [128, 128]
000000 6d 8b 06 bb 6b c6 8f bd e9 7e b6 bd 3a 26 7c bd
       -0.0020529882 -0.07020267 -0.08910925 -0.061559893
000010 f5 d4 9f 3d 0b 9c ed bd 0b 98 0e 3e bc 02 c2 bd
       0.0780429 -0.116020285 0.13925187 -0.09473178
000020 9b d5 2f 3d 91 f3 1b 3e 45 09 98 bd 40 9b d1 bd
       0.04292832 0.15229632 -0.07423643 -0.1023469
000030 f6 13 b1 bd 72 7b 83 bd b0 c6 d0 bd 15 79 1a be
       -0.08646385 -0.0642003 -0.10194147 -0.15085252
000040 e9 22 a1 bd 2d 54 75 bd d7 5d ff 3d 8c 29 0a bd
       -0.07867987 -0.05989473 0.124690704 -0.03373103
000050 b0 d3 26 3c 44 c8 44 bd 4f 92 79 3c 30 5d 95 3d
       0.010182306 -0.04804255 0.015232637 0.07293165
000060 b7 22 db 3c a1 5b 9a bc cf a1 a0 3b ec ed 13 3e
       0.026749952 -0.01884252 0.0049021016 0.14446229
000070 9b 09 e1 bd 97 a0 11 3e d8 c1 2a bd 5c 90 df 3d
       -0.1098816 0.14221416 -0.04168877 0.10916206
000080 6c 2f e3 3d 64 b8 72 ba 38 bb c1 bb dd 55 d9 3d
       0.110930294 -0.0009259044 -0.005912211 0.1061208
000090 07 2f ee bc b5 8f 2c 3d 78 fe 15 3e 4a 01 1c bd
       -0.029075159 0.042129237 0.14647853 -0.038087167
0000a0 c4 2e 80 bd 70 24 f3 3d 15 d8 0c 3e c2 54 16 3e
       -0.0625892 0.11872184 0.13754304 0.1468077
0000b0 ec 4c 1c be 9f 76 ce 3d ba 53 9a 3d c2 10 c8 bd
       -0.15263718 0.10081219 0.07535501 -0.09768821
0000c0 a4 c6 cc 3d 6e 17 b9 bd b9 fe 95 3d aa 70 56 3c
       0.09998825 -0.09037672 0.07323975 0.013088385
0000d0 17 ca 23 3d fa e9 d0 bd a7 00 19 bd 88 72 aa bd
       0.03998765 -0.102008775 -0.037354138 -0.08322626
0000e0 c0 01 9a 3d 27 53 04 be ab 0a 42 3b 2e 41 72 3d
       0.07519865 -0.12922345 0.002960841 0.05914419
0000f0 92 73 69 bb d8 65 5b bd 3a 0a 0f 3d 0a 23 46 3c
       -0.0035621864 -0.053563923 0.034921862 0.012093315
000100 64 4a bc bd bd a3 49 bd 02 27 09 bd 6a b4 b0 bd
       -0.091938764 -0.04922842 -0.033484466 -0.08628161
000110 37 42 f9 3b 2f cd 42 bd 27 be bd bd 3d ce 06 be
       0.0076067704 -0.04755896 -0.09264784 -0.13164611
000120 76 72 cc bd 8e 84 08 bd a9 61 eb 3d 16 9c d2 bc
       -0.09982769 -0.03332954 0.114932366 -0.025709193
000130 e3 58 a8 bd 32 1c ef bd 91 d8 d5 3c 08 4d 05 3e
       -0.08220079 -0.116753 0.026104243 0.13017666
000140 ce 45 0d be 85 f4 df 3d 88 d6 03 3e be dc dc 3c
       -0.1379616 0.1093531 0.12874806 0.026960727
000150 86 6b 9c 3d 95 34 3a 3d db 0d 09 be 9d b8 8c bd
       0.07637696 0.045460302 -0.13384192 -0.0687115
000160 1e cd 1f bd 3a f8 ba bd a4 17 25 bc 63 4c 04 3d
       -0.039013974 -0.09129377 -0.010076437 0.03229941
000170 1e 90 ab 3b f5 6b 9a 3d 3a c5 b8 bd 07 de 03 3e
       0.005235686 0.075401224 -0.09021993 0.12877665
000180 01 06 7f bd ef 3f ec 3d 84 7d 06 3e 8b bd 07 be
       -0.062261585 0.11535632 0.13133818 -0.13255899
000190 22 3b 16 be e6 ab e8 3d 03 af ee 3d cc fe b8 bc
       -0.14670995 0.11360912 0.116544746 -0.022582434
0001a0 77 f9 cf 3c a9 0a 74 3c dc e3 5d bd dc 32 95 3d
       0.025387509 0.01489512 -0.05417238 0.07285091
0001b0 ff 94 53 3d 7c 3b 17 be c6 fb 2c bd 0b 37 ba bd
       0.051655766 -0.14768785 -0.042232297 -0.0909253
0001c0 e8 91 6b 3d 8b 86 1c be eb b9 06 be 09 30 0a be
       0.057512194 -0.15285699 -0.1315686 -0.13494886
0001d0 97 62 57 bd 78 cb f1 bd 8e fd f9 bc 6d 7e c2 bd
       -0.052584257 -0.11806387 -0.030516412 -0.0949677
0001e0 1e 91 c9 3d d9 2a 02 3e 4f 94 72 3d 69 4e 73 bd
       0.09842132 0.12711658 0.05922347 -0.05940095
0001f0 a4 d8 7f 3d 3c 9c 06 be cf d1 9c bd 9f 74 03 bd
       0.062462464 -0.13145536 -0.07657205 -0.03209364
000200 69 b5 1e be 7e 01 13 3e 5f c4 b4 3d 09 10 61 3d
       -0.1549889 0.14356038 0.08826517 0.054946933
000210 c8 5b 93 3d 01 7f 0d 3e a2 6d 6e bd 6f 6b 16 3d
       0.0719524 0.1381798 -0.058210023 0.03672355
000220 66 dd 52 bd f4 e5 d4 bc f2 9c 0a be ac 78 bb 3d
       -0.051480673 -0.025988556 -0.13536432 0.09153876
000230 42 1f f9 bd bf 1f 8c bd a8 06 ff 3d eb 01 b8 bd
       -0.12164165 -0.068419926 0.124524415 -0.08984741
000240 b2 35 a1 3c 13 83 16 be 8b 43 cb bd 70 e8 01 3e
       0.019678924 -0.14698438 -0.09924992 0.12686324
000250 1b a7 8f 3d 43 8f d4 3b 69 f4 b5 bd 4f 1e ef 3d
       0.07014295 0.0064868047 -0.08884508 0.11675703
000260 4a 8f 13 3e cb 53 fb 3c 39 59 e3 bd 13 d2 ac 3b
       0.14410129 0.030679604 -0.11101002 0.0052740662
000270 bc 88 7b 3d 9f c4 0a 3d fa da fd 3d 53 2d 0d 3e
       0.061409697 0.03387892 0.12395282 0.13786821
000280 3d e8 86 3d b9 05 e7 bd ea 47 89 bc 91 dc f2 3c
       0.06587265 -0.112803884 -0.016757924 0.02964619
000290 d9 48 83 bd 46 91 3b 3d 51 a5 cc 3d 24 17 c2 bd
       -0.06410379 0.04579284 0.09992469 -0.0947707
0002a0 c3 99 66 bd 7e 7e ee bd 1e cf c2 3c 91 ad bb 3d
       -0.056298982 -0.1164522 0.023780402 0.091639645
0002b0 fa b7 02 3e 8b 84 03 3c b6 2b cc 3d 32 66 17 be
       0.12765494 0.008027206 0.09969275 -0.14785078
0002c0 09 0e 5a bb ab ee 22 bd 51 6e aa bd 4d 20 11 3e
       -0.0033272526 -0.039778393 -0.083218224 0.14172478
0002d0 92 d2 b2 3d 67 05 0e be d4 fc 15 be b5 e1 92 bd
       0.08731569 -0.13869248 -0.14647228 -0.071719564
0002e0 12 e6 24 3d 50 81 7b 3d 09 9d 8f 3d aa 5f f2 3d
       0.040258475 0.06140262 0.07012374 0.11834653
0002f0 96 ac c8 bd 34 9d e9 3b 69 b9 8b bd 1c 19 98 bd
       -0.09798543 0.007129336 -0.068224736 -0.07426664
000300 d5 11 15 bc f9 9c cf bc 84 07 fe bd 8f ec 11 bb
       -0.00909849 -0.025343405 -0.12403777 -0.0022266244
000310 8a c4 91 3d 62 98 0c 3e 9f 35 43 bd 42 5f be 3d
       0.07117565 0.13730004 -0.04765856 0.09295513
000320 c5 41 0c bd ef a2 e6 bd e3 18 f7 3d a6 14 48 bd
       -0.03424241 -0.11261546 0.12065294 -0.048847817
000330 03 b3 11 bd ee 2e d4 bc 25 4c 0d 3e ba e6 85 bd
       -0.03557111 -0.025901284 0.13798578 -0.06538148
000340 96 84 26 bd 9f ef 18 bb ee 9b e5 bd a7 b5 43 3d
       -0.040653788 -0.0023336185 -0.11211382 0.04778066
000350 80 fc 03 3e 8c b8 62 3d e2 cb 16 bd 3a 1a 2e bd
       0.1288929 0.05535178 -0.03681553 -0.04250548
000360 82 e4 1e be 3e 29 f7 bd da b1 43 bd 7c ce ad 3d
       -0.15516856 -0.12068413 -0.047777034 0.084866494
000370 fe d0 11 3e be ab be bc ce a8 70 bc d6 84 d6 3d
       0.1423988 -0.023275252 -0.014688684 0.10474555
000380 a7 81 03 bd 34 f0 e9 bd e0 ab 9a 3d 39 53 9a bd
       -0.032106068 -0.11422768 0.07552314 -0.07535405
000390 b0 49 df bd ed c0 ac 3a d1 99 d0 bd 70 10 01 be
       -0.10902727 0.0013180055 -0.10185588 -0.12603927
0003a0 a5 40 bf bd 15 4e cc bc b9 fd 24 3d db bf 92 bd
       -0.09338502 -0.024939576 0.04028103 -0.071655
0003b0 3d ed 15 be 2e 6f 55 bd ea d0 11 3e 89 cf 10 bd
       -0.1464128 -0.052107982 0.1423985 -0.03535417
0003c0 35 11 f8 bd 7d b5 6a bd 64 2f 0d 3e d2 05 c8 3c
       -0.12112657 -0.057301987 0.1378761 0.024416838
0003d0 d8 cf af bc 15 5e 19 3e 39 54 81 3c 42 62 26 3c
       -0.021461412 0.14977296 0.01578723 0.010155262
0003e0 d0 80 1a 3e 01 b1 fe bc 8c ea dc bc de de fa 3d
       0.150882 -0.031090261 -0.02696731 0.1224954
0003f0 03 c9 46 3d 86 f3 db bd e4 b0 c8 3d 85 6c 83 bd
       0.048531543 -0.10739808 0.09799364 -0.06417183

convs.2.bias f4 [128]
000000 ff 27 ea bc ea 12 04 bd 34 4f e7 bc e4 db 4d bd
       -0.028583525 -0.0322446 -0.02823601 -0.050258532
000010 a6 62 05 3e 24 b8 17 bd c7 27 cc bc fc 92 d5 bc
       0.13025913 -0.037040845 -0.024921311 -0.026071064
000020 01 16 1d bd a1 be c2 bc 9e e4 d0 bc 4b 6d 42 bd
       -0.038351063 -0.02377254 -0.025499638 -0.04746751
000030 d6 6a 1d bd ae 17 ec bc f8 39 46 bc 8d 51 59 bc
       -0.038431965 -0.028819885 -0.012098782 -0.013264072
000040 0c 76 3e ba 69 ac 0d bc 46 67 07 b9 cf 19 26 bc
       -0.0007265515 -0.008647063 -0.00012913076 -0.010137989
000050 71 b9 9f bc 43 90 09 bd a6 c6 56 bc 6a 10 00 bd
       -0.019497605 -0.033584844 -0.013108885 -0.031265654
000060 92 48 da bc 3b 3f 13 bc 8a c7 4c 3d 21 a5 17 bd
       -0.026645932 -0.008987243 0.049994983 -0.037022714
000070 3c 96 9c bc 0e 85 ab bc d7 3a 03 bd 52 2b be bc
       -0.019114606 -0.020937469 -0.032038536 -0.023214016
000080 87 8b ad bc b8 b1 a0 bc c4 06 ff bb fe 92 47 bc
       -0.021184696 -0.019615993 -0.007782789 -0.012181042
000090 1c 16 31 bd 5a 01 e7 bc 60 26 6a bd 88 17 00 bd
       -0.043233976 -0.028198887 -0.057165504 -0.03127244
0000a0 18 de a4 bc 06 ef 0a bd b5 3e 00 bd 38 4b 9c bc
       -0.020125434 -0.033919357 -0.031309802 -0.019078836
0000b0 f1 2d 4b bc f6 64 6f bc 8e 8e 3f bd e5 01 17 bd
       -0.01240109 -0.014611473 -0.04676681 -0.03686704
0000c0 ce bd 7b bc 32 e3 8d bc 87 3f d1 bc 42 5a d7 bc
       -0.015365077 -0.01732025 -0.025542988 -0.026288155
0000d0 1a 42 00 bd 24 f9 b7 bc 86 01 a3 bc 2c 99 d7 bc
       -0.03131304 -0.022457667 -0.019898187 -0.026318155
0000e0 a5 89 1a bc a1 82 66 bc 24 53 45 bd e5 21 12 bd
       -0.009432231 -0.01406923 -0.048174992 -0.035676856
0000f0 38 3a 09 bd f1 05 82 bc 0e ed e5 bc b5 a8 92 bc
       -0.033502787 -0.015871974 -0.028067138 -0.017902711
000100 ce 7a 3c bc 55 83 b5 bc 8b a9 69 bc eb 22 e4 b9
       -0.011503888 -0.02215735 -0.014261614 -0.00043513565
000110 35 1f d8 b9 86 2b c2 b9 6b 24 45 bc 41 07 17 bd
       -0.00041221982 -0.0003703499 -0.0120326085 -0.036872152
000120 f1 6a 96 bc 00 00 00 00 23 fc 08 bd 1c 1f 0c bd
       -0.01836154 0.0 -0.03344358 -0.034209356
000130 61 99 a2 bc ec 28 8e bc 10 e5 c9 bb 23 9c dc bc
       -0.019848527 -0.017353497 -0.0061613396 -0.02692992
000140 e0 04 52 bd ce 17 74 bd 1a 38 39 bd 5c a3 d9 bc
       -0.05127418 -0.059593014 -0.04521952 -0.026567154
000150 68 c3 2c bb c5 65 bf bc 7b f4 55 bb 6c c5 0b bd
       -0.0026361588 -0.023363957 -0.0032646942 -0.034123823
000160 fc fe cd bc aa 24 d7 bc f9 05 14 bd 35 82 f2 bc
       -0.025146 -0.0262626 -0.03613851 -0.029603103
000170 64 0e 00 bd df 28 d7 bc 5f 21 eb bc e6 76 4c bc
       -0.031263724 -0.026264606 -0.028702436 -0.0124795195
000180 9f a4 30 bd 4a 81 22 bd c6 74 22 bd b6 a6 e2 bc
       -0.043125745 -0.03967408 -0.039662145 -0.027667385
000190 79 b1 90 bc da a1 61 bd 00 9d a5 bc 76 8d 35 bd
       -0.01766275 -0.055085994 -0.020216465 -0.04432436
0001a0 da b3 56 bd cd ea 2b bb c8 31 00 bd 60 de b3 bc
       -0.052417614 -0.0026232481 -0.031297475 -0.021956623
0001b0 33 cb da ba 5e bb 08 bc 5c 7a 5d bc f4 9f a6 bc
       -0.0016692638 -0.008345453 -0.013517942 -0.020339943
0001c0 9a 1a e3 bc c0 66 3a bd f9 68 e8 bc 78 9d dc bc
       -0.027722646 -0.045508146 -0.028370367 -0.026930556
0001d0 66 3e 85 bc 26 67 02 bd 2f 08 ff b7 7d 05 7a bc
       -0.016265105 -0.03183665 -3.040218e-05 -0.015260098
0001e0 19 39 00 bd e5 d7 98 bb 02 59 ea bc 98 b4 40 bc
       -0.031304453 -0.0046644085 -0.028606895 -0.011761807
0001f0 01 9c ad bc 0e b2 d3 bc ac 04 cc bc ec b3 83 bc
       -0.021192553 -0.025841739 -0.024904571 -0.016077004

convs.2.lin.weight f4 [128, 128]
000000 09 c6 8f 3b 7b c6 4d 3d f7 42 15 3e 5e 60 cd bd
       0.0043876213 0.050238114 0.14576326 -0.10028146
000010 ed 3e 1a be 68 3c 32 3c 5e 7c 0a bd c9 07 8b bd
       -0.15063067 0.01087866 -0.033810012 -0.06788594
000020 34 20 4d 3d be 68 15 3e 26 c2 d9 3d 93 65 43 bd
       0.05007954 0.14590737 0.10632734 -0.04770429
000030 5b fb b6 3d b9 21 39 bd 18 02 10 be 81 5a 8a bd
       0.08934661 -0.045198176 -0.14063299 -0.067555435
000040 41 72 ed bd 8a b6 36 3d 13 31 dc 3d d7 2b 40 3d
       -0.11594058 0.044607677 0.10751548 0.04691681
000050 34 86 d5 bc 61 d8 ba 3c b1 25 25 bd 07 8a eb bd
       -0.02606497 0.022808256 -0.04031915 -0.11500936
000060 38 02 1b 3e e6 30 e5 3c dc 1f 0c be 6f 93 9e 3c
       0.15137565 0.027977418 -0.13684028 0.019357411
000070 df fd 08 3e 61 01 48 bc 53 ea ca bc 20 04 62 bd
       0.13378094 -0.01220736 -0.024769938 -0.055179715
000080 80 f1 89 bd 2a c1 94 bd 34 fd 0b 3d 95 e5 16 be
       -0.067355156 -0.072634056 0.03417702 -0.14736016
000090 3c e8 9a bd e8 b7 01 3e 5c 67 99 3b ea c8 12 bd
       -0.075638264 0.12667811 0.004681511 -0.035836138
0000a0 a1 72 e6 3a 95 39 65 bd c8 a0 4f 3c 61 c6 06 be
       0.001758177 -0.055963118 0.012672611 -0.13161613
0000b0 73 4e 1c 3e f6 55 dc bd 8c 81 e3 3d aa 60 e3 bd
       0.15264301 -0.10758583 0.111086935 -0.111024216
0000c0 cd 3b a3 3c a3 d0 1e be 04 19 fc bb 29 fd 96 3d
       0.019925976 -0.15509276 -0.007693412 0.07372505
0000d0 67 5e 18 be 12 48 af bd f8 8b 07 be 24 b2 c1 bd
       -0.14879762 -0.08558668 -0.13236988 -0.09457806
0000e0 52 77 b6 3d 65 1e c3 3d 57 ff ef bd 01 dc ad 3d
       0.08909477 0.09527282 -0.11718624 0.08489228
0000f0 ee 79 c4 bc 1a 63 08 be 8a 05 db bd 98 9f 86 bb
       -0.023983922 -0.13319054 -0.10694416 -0.0041083805
000100 8e 43 f6 bc 8b c8 af bd b8 56 f9 bc c6 f7 c5 bd
       -0.03006151 -0.085831724 -0.030436859 -0.096664
000110 a1 67 3d 3d 1f b0 23 be 9a 8b 5b 3d 14 f2 91 bd
       0.046241406 -0.15985154 0.05359993 -0.07126251
000120 de 74 ef 3c a2 e6 f2 3d b4 60 35 3d 56 6d 54 3d
       0.029230531 0.11860396 0.044281676 0.051862083
000130 f1 e5 cf 3d 8b 15 e8 bd 4a 53 c3 3c 58 22 e5 3d
       0.1015128 -0.11332234 0.023843426 0.11188191
000140 54 41 d1 3d 6f e4 16 bd 7e ed e8 bd 12 0f 08 3e
       0.102175385 -0.036838945 -0.11373423 0.13286999
000150 a1 f9 60 bc 67 80 17 3b 04 54 87 bd aa 7f e5 3d
       -0.013731391 0.0023117305 -0.066078216 0.112059906
000160 c4 b4 5d bd 17 54 31 bb 3e 3f a0 3d 3d 4b f8 bd
       -0.05412747 -0.0027058178 0.078245625 -0.121237256
000170 9d 0c 5d bd c6 59 7a 3d 62 73 c3 3d 00 ed 95 bd
       -0.053967107 0.06112077 0.09543492 -0.07320595
000180 e4 46 54 3d 59 14 a3 bd e8 fe 17 be eb a2 a2 bd
       0.05182542 -0.079628654 -0.14843333 -0.079412304
000190 7f 10 08 be 20 0f 0f 3e e6 b3 ca bd 4a a5 85 3d
       -0.13287543 0.13970613 -0.09897594 0.06525667
0001a0 67 8c 27 bd 17 7e 3e bd 97 c5 b7 3c 98 4b 4e 3d
       -0.040905382 -0.046506967 0.022433085 0.05036506
0001b0 38 bb 85 3d 93 91 b1 3d 78 f0 21 bc 4e d7 b5 3d
       0.0652985 0.08670344 -0.009883992 0.08878957
0001c0 c7 04 b9 3c a9 56 aa bd d3 42 18 be f8 b7 1c be
       0.022585286 -0.0831731 -0.14869241 -0.15304554
0001d0 41 dc c1 3d dc 72 c2 3d 35 3d f3 3d 86 d1 c6 bd
       0.09465838 0.09494564 0.11876909 -0.09707932
0001e0 db eb b9 3d 09 35 a7 3d 3b 2c e3 3d e4 b5 00 be
       0.09078189 0.081644125 0.11092421 -0.12569386
0001f0 ed ce 99 3d 44 33 12 be 17 ef 8a 3d 2c 2d 73 3b
       0.07510171 -0.14277369 0.06783884 0.0037105782
000200 fe 0f 99 bd e3 9c 01 3e 1b 14 18 be 61 86 df bc
       -0.074737534 0.12657504 -0.1485142 -0.027285757
000210 41 d3 e9 3b 93 87 c6 bd 57 14 d6 3d 10 c5 e2 3b
       0.007135779 -0.096938275 0.10453098 0.0069204643
000220 c1 90 1b be a7 4a f0 bc c2 9c da 3c e8 79 71 3c
       -0.15191938 -0.029332472 0.026686076 0.014738537
000230 0d 59 87 bd a5 df 68 bd d0 1b a1 3d c4 fe dc bd
       -0.06608782 -0.05685391 0.07866633 -0.1079078
000240 4e cd 50 bc d9 55 16 3c 0a a0 09 3e 1e 0d 04 be
       -0.012744261 0.009175741 0.13439956 -0.12895629
000250 3f 44 88 bd 5e e8 94 3d 02 a1 64 3d b9 af f5 bd
       -0.06653642 0.07270883 0.05581761 -0.11996407
000260 59 e2 a9 bd 4f c4 ba bd 75 aa a0 3d 59 11 f1 3d
       -0.082951255 -0.09119474 0.07845012 0.11770887
000270 80 ae 77 bc 3f e2 e4 bc 5b 92 ff bd be f6 34 3d
       -0.015117288 -0.027939914 -0.12479087 0.044180624
000280 3b 28 b5 3d 20 78 b5 bd 8b e7 0f 3d 99 8f 36 3d
       0.08845564 -0.08860803 0.035132926 0.04457054
000290 3e 9f b6 bd 88 06 8a bd 32 25 9d bd e7 57 a2 bd
       -0.08917092 -0.06739527 -0.0767311 -0.07926922
0002a0 86 11 2f be 9b 08 d9 bd 2d 23 fe 3c 0a 3f 35 3d
       -0.17096528 -0.105973445 0.031022632 0.04424957
0002b0 b0 67 1c bd 79 5d 0f 3c 11 eb 13 3e 15 0c a7 3d
       -0.03818482 0.008750313 0.1444514 0.08156601
0002c0 f9 99 74 bd da 87 dd 3d 32 6a e9 bc b5 00 42 3d
       -0.059717152 0.10816927 -0.02849302 0.047363956
0002d0 4c 1a e3 bc d6 4a c6 3d d0 9f 88 bc f0 15 8b bc
       -0.0277225 0.096822426 -0.016677767 -0.016978234
0002e0 b0 c2 aa 3d fb 9d 8f 3d 02 55 b0 3d fd bc 12 3e
       0.08337915 0.07012554 0.08609964 0.14329906
0002f0 8b d8 cb bb ab a7 b3 3d a8 3e e4 bd 5c 13 c3 3b
       -0.0062208823 0.087722145 -0.11144763 0.0059532356
000300 e9 12 13 be ff bb a1 bc 19 a8 94 bd 82 90 d5 3d
       -0.14362682 -0.019742964 -0.072586246 0.10427953
000310 23 f7 ae 3d 17 a6 24 be ab e3 f7 3d e3 e6 e7 3d
       0.08543231 -0.16078983 0.12103971 0.11323335
000320 6f 8e ed bc ef 65 00 3d 53 82 e7 bb 3b 15 bd bd
       -0.028998582 0.03134721 -0.0070650964 -0.09232565
000330 1f b1 14 3e 25 af 14 3e c6 f2 aa bd 53 5a 42 3d
       0.14520691 0.14519937 -0.083470866 0.04744942
000340 e6 fb c6 3d 61 e8 85 3d 41 1f e5 3d 41 9a 98 3d
       0.097160146 0.065384634 0.11187602 0.074512966
000350 ad 63 5e bd 72 39 9e bd a7 8b cb bc 7f 3d 75 bc
       -0.054294277 -0.077258006 -0.024846865 -0.014968275
000360 cc b4 34 bd 5b 97 fb bd c1 a9 1a 3e e6 77 8f 3d
       -0.044117734 -0.12284728 0.15103818 0.07005291
000370 ad ad 79 bc aa 0c a1 bd 96 f8 c4 3c 53 ec 0e be
       -0.015239161 -0.078637436 0.024044316 -0.13957338
000380 21 40 76 bd 3a a1 46 bd 75 46 e6 3d 08 39 35 3b
       -0.06011975 -0.0484936 0.11243907 0.0027652401
000390 b0 f6 87 3d dc 7b 22 3c 6f d9 e7 3b 18 94 16 3e
       0.06638849 0.009917226 0.0070754807 0.14704931
0003a0 53 82 03 3c 15 58 04 3d 78 63 6a bd 44 eb a7 bd
       0.008026677 0.032310564 -0.057223767 -0.0819917
0003b0 37 1e 11 be c9 9d 4f bc 62 f8 90 bd ee 53 a2 bd
       -0.14171682 -0.012671896 -0.07078625 -0.079261646
0003c0 ee e1 09 be 25 ec 8a bb 10 3a 09 3d 3f 6c 1c be
       -0.13465092 -0.0042395764 0.03350264 -0.15275668
0003d0 db 2f 19 bd 02 72 0b 3e 7a 27 f0 bc 64 e4 08 be
       -0.037399154 0.1361771 -0.029315699 -0.13368374
0003e0 16 a1 00 be 52 1c a8 bd 5a 8b 0c 3e 85 8f b2 bd
       -0.1256145 -0.08208527 0.13725033 -0.087187804
0003f0 bb 18 b9 bd 64 ba 0f be 8e 13 8a 3c 8e 50 ab 3d
       -0.0903792 -0.14035946 0.016855028 0.08364974

convs.3.bias f4 [128]
000000 5d 1c 80 bd 85 c7 20 bd a1 e6 09 bd db 4f 2b bd
       -0.0625541 -0.039252777 -0.03366721 -0.041824203
000010 f9 e0 ed bc 93 b4 fd bc a7 c2 00 bd 78 17 fe bb
       -0.02903794 -0.030969894 -0.031435635 -0.0077542625
000020 92 d2 9c bc 3a 88 ee bc fb 61 cd bc cf 5f cc bc
       -0.019143376 -0.029117692 -0.025071135 -0.024948029
000030 26 7e ec bc 2d 72 92 bc 85 a9 ec bc 58 18 df ba
       -0.028868746 -0.017876709 -0.028889427 -0.0017020805
000040 1b 94 27 bd 34 6a e2 bc f9 90 e9 bc cf 0b 00 bd
       -0.04091273 -0.027638532 -0.028511511 -0.03126126
000050 f7 d3 22 bc 6f 33 f1 bc 18 a5 ce bc da c1 12 bc
       -0.009938232 -0.02944347 -0.025225207 -0.008957351
000060 e3 02 f9 39 fa a0 67 bc 7f 02 27 bc bd fd 0f bd
       0.00047495132 -0.014137501 -0.010193466 -0.035154093
000070 ed 1d 82 bd cc 28 ea bc c1 75 21 bb 93 31 f7 bc
       -0.06353364 -0.028583907 -0.0024636837 -0.030175006
000080 ab 0e e6 bc 89 4f b2 bc c8 49 37 bc 15 ef 91 bb
       -0.028083166 -0.021766441 -0.011187024 -0.0044535496
000090 25 3d 41 bd 05 7b ce bc 4f b6 2d bd ba 1b 34 bb
       -0.047177453 -0.025205145 -0.04241019 -0.0027482347
0000a0 e5 6a 27 bd 3c f5 01 bd f8 67 f1 bc 58 63 ea bc
       -0.040873427 -0.031728014 -0.029468521 -0.028611824
0000b0 78 38 ff bc 9e 6e 76 bd 15 05 94 bc af d2 c9 bc
       -0.031154856 -0.060164087 -0.01806883 -0.024636595
0000c0 05 01 b9 bc a3 0d d6 bc 21 56 1f bd b0 71 23 bc
       -0.022583494 -0.02612955 -0.0389005 -0.009975836
0000d0 b0 38 1f bc ee 20 be bb 6a 6f 15 3e e2 16 9c bc
       -0.009718105 -0.0058022654 0.14593282 -0.01905388
0000e0 9c e7 20 bd 75 c5 f8 bc f1 39 14 bd 2f bd 0d bd
       -0.03928338 -0.030367592 -0.03618807 -0.034604248
0000f0 51 92 d9 3d 9e 74 01 bd ff 80 ce bc a7 29 25 bd
       0.10623611 -0.031605355 -0.025207995 -0.040322926
000100 bc c9 c4 bb 51 c7 71 bd aa 74 fc bc 24 b5 08 bd
       -0.006005494 -0.059027974 -0.030817349 -0.033375874
000110 a9 e3 37 bc 53 d1 ee bc 31 4a 6f bc 17 8f 47 bc
       -0.011223712 -0.029152548 -0.014605091 -0.012180111
000120 36 d9 bf bc 57 ae e7 bc 47 42 e5 bb 2f cd cd bc
       -0.023419004 -0.028281374 -0.0069964263 -0.025122253
000130 ed 36 21 bd 37 d3 08 bd d2 4a 0f bc a1 b9 f9 bc
       -0.039359022 -0.033404555 -0.008745866 -0.030484023
000140 52 41 ae bc a2 5b 45 bd b1 5a bb bb 3f 28 20 bc
       -0.021271382 -0.04818309 -0.0057175984 -0.00977522
000150 19 aa a2 bc 17 a2 6e bc 1c dc 28 bd 26 30 1d bd
       -0.0198565 -0.014565012 -0.041225538 -0.038375996
000160 fd e4 21 bc 79 ce 80 bc 7e 95 eb bc 26 b4 f1 bc
       -0.009881255 -0.015723454 -0.028757807 -0.029504847
000170 11 d5 8f bc 3c e4 2e bd f6 1f ec bc c2 0e 00 bd
       -0.017557653 -0.04269813 -0.028823834 -0.031264074
000180 ae 9e 14 bd 28 6b 09 3e 6b 39 f8 bc 77 f2 9e bc
       -0.03628414 0.13419783 -0.030300817 -0.019402726
000190 fa 99 e7 bc 73 6f 3c bd 69 0b 00 bd 20 9f 91 bc
       -0.028271664 -0.046004724 -0.03126088 -0.017776072
0001a0 9b 27 f9 bb ad 82 5b bd 96 0a 00 bd 31 9f cb bc
       -0.0076035983 -0.05359142 -0.031260096 -0.024856182
0001b0 2c 3f de bb 7f c6 04 bc b6 7c 0d bc 62 66 c9 bc
       -0.006782433 -0.008103966 -0.00863569 -0.024584953
0001c0 95 1e 75 bc 63 dc ca bc 24 19 36 bd 0c a1 30 bd
       -0.014960905 -0.024763292 -0.04445757 -0.043122336
0001d0 45 c8 e7 bc e8 84 32 bc 1c 88 b2 3d 46 13 49 bd
       -0.028293738 -0.010895945 0.08717367 -0.049090646
0001e0 0d c9 ab ba b2 14 d4 bc 11 2a 82 bc c8 3c 8c bb
       -0.0013106182 -0.025888775 -0.0158892 -0.0042797066
0001f0 c1 9f 83 bc ab df 18 bd f3 47 30 bd 32 24 ef bc
       -0.016067388 -0.03732268 -0.043037366 -0.029192064

convs.3.lin.weight f4 [128, 128]
000000 70 be ef 3d ce 63 a8 3b fe 2f 8e 3c e4 55 88 3d
       0.11706245 0.005138851 0.017356869 0.06657007
000010 b7 66 ca 3d 52 73 f0 bd 1f b0 a9 3d c3 c9 92 3d
       0.098828726 -0.117407456 0.082855456 0.07167389
000020 b7 69 01 bd 2f 3c 2a bc f2 f2 b6 3d 4a 69 a8 3d
       -0.03159496 -0.010390325 0.08933057 0.08223207
000030 31 9f 0a 3e 2b 13 b5 3d df 64 01 be 40 9c a3 3d
       0.13537289 0.088415466 -0.12636136 0.07988787
000040 3e 7d c9 bd 6e 54 14 bd b2 d1 0e be 1e ac 60 bd
       -0.09838341 -0.03621333 -0.1394718 -0.054851644
000050 39 9a 46 bd 10 33 d0 3d 20 d7 75 bc eb a8 a7 bc
       -0.048486922 0.101659894 -0.015004903 -0.020466289
000060 8a 63 82 bd 27 d4 8f bd 51 02 58 be 4f e3 4c bd
       -0.06366642 -0.07022887 -0.21094634 -0.050021466
000070 38 3a 9e 3d 62 42 db 3d 60 af 6d 3d aa 74 a6 3d
       0.07725948 0.10706021 0.05802858 0.08127721
000080 d0 48 17 be c8 8e 1b 3e b3 81 67 3d 97 94 3f be
       -0.1477387 0.15191185 0.056520175 -0.18709026
000090 95 b7 57 bd 5a c6 15 3e 98 6f 05 be 35 80 43 bc
       -0.05266531 0.14626446 -0.13030851 -0.011932422
0000a0 86 5f a6 bb 98 77 a2 3d 10 55 92 bd eb d0 13 be
       -0.0050773052 0.07932967 -0.07145131 -0.14435165
0000b0 03 ac e2 bd 83 13 f8 bd e5 aa 20 3d fa 01 39 be
       -0.11067965 -0.121130966 0.039225478 -0.1806716
0000c0 de 8f db bc 49 aa a5 bd e1 44 3f bd f6 25 3d bd
       -0.026802 -0.0808912 -0.046696547 -0.04617878
0000d0 3a f5 f0 3d 03 30 57 3d 47 60 2c be 84 d6 7d 3b
       0.11765523 0.052536022 -0.16833602 0.0038732598
0000e0 93 31 c7 3d 8d 8b d8 bd bc 52 18 be d2 f8 21 bd
       0.097262524 -0.10573492 -0.1487531 -0.039543934
0000f0 bf 22 9f bd 60 cf f2 bb 68 8a e0 bc 4c d8 69 be
       -0.07770299 -0.007409975 -0.027409747 -0.22836417
000100 78 ab 48 bd b3 1b ef 3d be 6a 12 3d a7 67 f3 bd
       -0.04899165 0.11675205 0.03574633 -0.118850045
000110 ee b3 47 bc 97 c7 6b 3d 15 83 6e bd 34 7b 41 3d
       -0.012188895 0.05756339 -0.05823048 0.047236636
000120 f3 28 0c be 18 4e 1a 3e 62 be 79 bd f3 e9 d1 bd
       -0.13687496 0.15068853 -0.06097258 -0.102497004
000130 d8 43 1b 3e f5 25 0e be 84 15 cd bd 74 0c 36 bd
       0.15162599 -0.13881667 -0.100138694 -0.04444547
000140 d1 5a 2b 3e ad b8 6a bd c8 4a b0 bd f8 cd e0 bd
       0.16733862 -0.057305027 -0.086080134 -0.109767854
000150 8b 80 18 3e a5 3b 04 be 77 e3 18 3c 30 fe ce 3d
       0.14892785 -0.12913378 0.009331576 0.10107076
000160 e6 04 ca bd c0 47 0b 3e 27 da 4f bd f2 58 5b 3d
       -0.098642156 0.13601589 -0.050745156 0.05355162
000170 56 32 01 3e a3 9c 16 be 7b 41 61 bc 17 78 ba bd
       0.12616858 -0.1470819 -0.013748522 -0.091049366
000180 d9 a1 bb bd d2 5f 61 bd 99 cc 1a be bc 66 f2 bd
       -0.09161729 -0.055023022 -0.1511711 -0.11836001
000190 a5 12 26 3d d4 a4 eb 3d a5 c5 d6 bd 68 92 93 bc
       0.040545125 0.11506048 -0.104869165 -0.018014148
0001a0 28 93 8a bd 9d 06 5c 3d 25 50 03 3e 64 7f ee 3d
       -0.06766349 0.053717244 0.12823541 0.116453916
0001b0 40 f3 83 3d 81 f6 a1 3d 0a f1 49 bd 58 13 41 bd
       0.06442881 0.07908345 -0.04930214 -0.04713759
0001c0 76 68 80 3c 9c d3 18 be 57 5f 75 3d 57 20 1b be
       0.01567481 -0.14924473 0.059905376 -0.15149055
0001d0 46 6e 12 bd 27 3c ce bc 47 bd a2 3d 70 8d 10 bc
       -0.035749696 -0.025175167 0.07946258 -0.008822784
0001e0 0d 59 a8 bd fe d8 ec bc f7 fe f0 3d 83 0b f9 3d
       -0.0822011 -0.028912064 0.11767381 0.12160399
0001f0 4c 79 ac 3d cc f3 1d bd c7 dd e5 3b 3b 82 d6 3c
       0.08421573 -0.03856258 0.0070149633 0.026185146
000200 99 42 76 3d 98 89 e1 3d 39 0e 45 be 50 33 5a bd
       0.060122106 0.11012572 -0.19243707 -0.05327159
000210 66 fa 05 bd 43 6d 16 3e a8 0f 9a bd 4e dc 5e 3d
       -0.0327095 0.14690118 -0.075225174 0.054409318
000220 44 7d 08 bd 13 4d 09 be cc 54 0b 3e 3a f2 55 3d
       -0.033322588 -0.13408308 0.13606566 0.05223296
000230 13 fa bd bd 31 ac c4 3d f9 91 df 3d 5e fc 02 bd
       -0.092762135 0.096031554 0.10916514 -0.031978957
000240 54 3a dd 3d 9b e0 0c be 3d 91 0a be 78 f1 e6 3d
       0.10802141 -0.13757555 -0.13531967 0.11276525
000250 36 e8 28 3d e2 c2 a2 3d e3 2a 01 3a ea 06 20 3d
       0.04123708 0.07947327 0.000492735 0.039069094
000260 5c 59 23 be 42 e9 15 be f7 cd 91 3d ea 38 19 be
       -0.15952057 -0.14639762 0.07119363 -0.14963117
000270 65 a4 7b 3d 21 31 9f bd 00 29 ae 3c 16 9c fc bc
       0.061436076 -0.077730425 0.021259785 -0.030836146
000280 eb 8d 12 bb 2c 7a b4 3d f0 fa 5e 3c 2e a9 dd 3d
       -0.0022362422 0.08812365 0.013609633 0.10823284
000290 82 85 0c 3e 00 da d0 bd 21 4d 2c 3d d7 3c e5 bd
       0.13722804 -0.1019783 0.042065743 -0.11193245
0002a0 d8 c0 02 be 02 71 22 bd fb 34 03 3e 81 54 4f bd
       -0.12768877 -0.039658554 0.12813179 -0.0506177
0002b0 79 6f 98 3c 6f 52 02 be f3 96 70 bd ee cf 1b 3e
       0.018607842 -0.12726758 -0.058737706 0.15216038
0002c0 13 95 08 3e 94 c6 69 bc d1 11 d8 bd 35 3c 06 bd
       0.13338117 -0.014268536 -0.10550273 -0.03277226
0002d0 4f 77 e0 3c 27 f5 fc bd 2f 49 d3 3c 29 56 8f bc
       0.02740064 -0.123514466 0.025791733 -0.017497139
0002e0 4c e7 14 be 06 db 1b 3e b5 bd 3b bd c1 6b 0a 3d
       -0.14541358 0.1522027 -0.045835216 0.03379417
0002f0 e5 37 0d 3d 56 62 fc 3d bf 65 b6 3c f6 ef c6 3d
       0.034477133 0.123234436 0.022265313 0.09713738
000300 a9 40 11 3e 63 d0 eb bd 5a 41 aa 3d a7 0f bf bd
       0.14184822 -0.11514356 0.08313246 -0.09329157
000310 95 3a 0a be 0a 15 6d bd a6 06 0c 3e 48 b3 3b bd
       -0.1349891 -0.057881393 0.13674411 -0.045825273
000320 dd ba 11 3e cf 7c 29 3d e6 09 3b 3d 5a 9e 0b be
       0.14231439 0.041378792 0.045663737 -0.13634625
000330 e6 9d 33 bc f2 97 77 bd dc b5 6f bc 46 99 71 bd
       -0.010962939 -0.06044764 -0.014630761 -0.058984064
000340 36 e7 4c bd ca 63 75 bd a3 08 56 ba 4c 4e f2 3d
       -0.050025187 -0.05990962 -0.0008164739 0.1183134
000350 f1 bb dc bd 4e e6 03 3e b5 e2 84 bc 6e 88 50 bd
       -0.107780345 0.12880823 -0.016221384 -0.05091136
000360 02 ec 5d 3d cc 01 bb bd 0b ec 47 3d d9 28 dc 3d
       0.054180153 -0.09131202 0.048809092 0.107499786
000370 17 9a c3 bd 8d b2 c3 3d 24 5a b8 3d d8 8d ca 3d
       -0.09550875 0.0955554 0.09001568 0.09890336
000380 d7 66 ce bd d9 dc 5e 3d a9 45 1a 3d e8 06 05 be
       -0.10078209 0.054409835 0.03766409 -0.12990916
000390 61 1c a1 3c 96 28 27 39 f9 9d c6 3d f3 f2 95 bd
       0.019666852 0.0001594148 0.096981 -0.073217295
0003a0 ff b1 cf 3d 53 81 16 be 90 44 b6 bc 29 bb 07 3c
       0.10141372 -0.14697771 -0.02224949 0.008284369
0003b0 05 d5 5e 3c 93 8c e6 bd b7 de 81 bd 33 d8 8e bd
       0.0136005925 -0.11257281 -0.063413076 -0.069748305
0003c0 bf d2 9c bd 54 0f 94 bc 17 09 ff bc 78 69 24 bd
       -0.07657384 -0.018073715 -0.031132264 -0.040139645
0003d0 b3 4c 7e bd de e8 5f bd d6 38 da bd 1c 26 a6 bd
       -0.062084865 -0.05466544 -0.10655372 -0.081127375
0003e0 9c 36 e0 3d d8 f8 18 be 04 b1 1a 3e c2 e5 cb bd
       0.10947916 -0.14938676 0.15106589 -0.09955932
0003f0 5e aa 30 3d 71 db df bd e5 54 b4 bc fb 5d 74 bc
       0.043131225 -0.10930527 -0.022013137 -0.014914985

convs.4.bias f4 [128]
000000 97 b9 f1 bc d0 0d b3 bc b8 33 10 bc 20 fd 09 bd
       -0.029507441 -0.021857172 -0.008801393 -0.033688664
000010 da 10 1c bd 0e d6 d1 bc 92 b8 fe bb 29 04 59 bb
       -0.03810201 -0.025614765 -0.0077734673 -0.0033114052
000020 a6 a5 2b bd 5f 52 83 bc ec c2 44 bd 8f b0 07 bd
       -0.04190602 -0.016030489 -0.048037454 -0.033127364
000030 43 9a 24 bd b4 2b fd bc d0 68 9c bc aa 12 ea bc
       -0.040186178 -0.030904628 -0.019092947 -0.028573353
000040 d4 5d b0 bb bd c7 98 bc 0a fc e7 bc 87 63 33 bb
       -0.005382279 -0.01864993 -0.028318424 -0.0027372555
000050 71 ec e7 bc 79 76 c7 bb 56 42 05 bd 29 cc 39 bc
       -0.028310986 -0.006087121 -0.032533966 -0.0113401795
000060 33 59 21 ba a2 c9 c4 bb 13 66 80 bc f5 56 17 bd
       -0.00061549543 -0.006005482 -0.015673673 -0.036948163
000070 b8 87 75 bc 6a 69 b1 bc e8 5b f7 bb b7 df 04 bd
       -0.014985971 -0.02165671 -0.007548798 -0.032439914
000080 a0 71 84 bc 2a f0 d7 bc 58 0d d6 bb 28 4a 99 bb
       -0.016167462 -0.026359636 -0.0065323524 -0.0046780296
000090 32 d1 31 bc 79 29 f1 bc f1 ad 09 bc 17 53 8a bc
       -0.010853099 -0.029438721 -0.008403287 -0.016885323
0000a0 ff bc 13 bd dc 76 de bc e4 81 45 bd d5 3a 31 bd
       -0.036068913 -0.027156286 -0.048219576 -0.043268997
0000b0 8e 2b f3 bb 26 e7 27 bc 00 00 00 00 55 4f 1b bd
       -0.0074209636 -0.010247981 0.0 -0.037917454
0000c0 0f 47 6c bd 8b 7f 8a b9 cf 1b 0b bd 70 8f cc bc
       -0.057684954 -0.00026416438 -0.033962067 -0.02497074
0000d0 6f 26 ac bb 1e 92 8b bd ad 62 17 bd 3b 0c e8 bc
       -0.005253605 -0.06814979 -0.03695934 -0.028326144
0000e0 90 f8 1c bd a9 c6 fa bc 00 00 00 00 ee 4c 59 bd
       -0.038322985 -0.030612307 0.0 -0.05305188
0000f0 3f 21 83 bc 43 80 32 bc b1 39 e5 bc af 00 06 bd
       -0.016007064 -0.010894838 -0.027981611 -0.032715496
000100 37 98 56 bc 36 82 80 bc ef ea ff bc cd 20 2b bd
       -0.013097814 -0.01568709 -0.031239955 -0.04177933
000110 36 c6 96 bc 8d df 59 3e bf 74 64 bd aa 82 de bc
       -0.018405061 0.21276684 -0.0557754 -0.027161915
000120 97 5f 21 bd 3c a4 76 bd bf c9 c4 bb e2 79 cd bc
       -0.039397802 -0.06021522 -0.0060054953 -0.025082532
000130 24 a6 88 bb 64 99 7e bd 2b ec 27 bb bb 48 8c bc
       -0.004170196 -0.062158003 -0.0025622945 -0.017124524
000140 13 11 0d bd dc 9c 17 bd da fc 0e bc 00 00 00 00
       -0.03444011 -0.037014827 -0.008727277 0.0
000150 1a f8 73 bc 88 09 65 bc e1 9f 86 3e 81 2f 94 bc
       -0.014890695 -0.013979323 0.26293853 -0.018089058
000160 77 b4 e1 bc a7 45 ea bc e7 de b0 bc 39 21 ad bc
       -0.027551873 -0.028597666 -0.021590663 -0.021134006
000170 40 17 12 bd 47 db e1 b9 af b4 8d bd 3d b4 8e bc
       -0.035666704 -0.0004307872 -0.06919228 -0.017419929
000180 fb da 2c bd 64 17 02 bd cc 28 dd bb 09 8d 6d bd
       -0.042201024 -0.03176059 -0.006749248 -0.05799583
000190 e3 45 23 bc 25 44 9d bc 1e 02 d4 bc 23 24 dc 3a
       -0.009965393 -0.019197533 -0.025879916 0.0016795438
0001a0 c9 eb a9 bc a1 51 89 bc 66 2c 03 bd c8 b5 f0 bc
       -0.020742314 -0.016762557 -0.032024764 -0.029383555
0001b0 ab 82 8d bb 1c e3 c7 bc 22 dd c1 bb 0d 69 a3 bc
       -0.0043185554 -0.024400286 -0.0059162537 -0.019947553
0001c0 98 5d eb bc de eb 48 bd b2 14 00 bd d2 17 71 bd
       -0.028731152 -0.049053065 -0.031269737 -0.058860607
0001d0 22 59 14 bd b4 7b 62 bd 00 00 00 00 1a c0 bf bc
       -0.036217816 -0.055293754 0.0 -0.02340703
0001e0 ec b2 b8 bc d8 5b d1 bc 67 ca 03 bb 7e 3b 54 bc
       -0.022546254 -0.02555649 -0.0020109655 -0.012953637
0001f0 66 ae 80 bc 70 f5 d3 bb d4 f5 e7 bc 87 11 1b bc
       -0.01570816 -0.0064684674 -0.028315462 -0.009464628

convs.4.lin.weight f4 [128, 128]
000000 f3 06 fb bd fa 79 5f 3b 7c 4a 23 be 45 f7 a5 bd
       -0.12257185 0.0034099803 -0.15946382 -0.081038035
000010 43 cc 16 bd 5b 2f dc bc 71 33 07 bd a3 a2 ba 3c
       -0.036815893 -0.02687805 -0.033008043 0.02278263
000020 39 75 ad bd e7 11 c3 bd 3e c6 b5 3d 43 9b 04 bd
       -0.08469624 -0.09524899 0.08875702 -0.03237463
000030 ba 01 a2 bd 39 ca 39 be ef 81 0f 3e 5f 21 43 3d
       -0.079104856 -0.18143548 0.1401441 0.047639247
000040 04 6b 0b be fe 7b 1e bd 10 87 d5 3d b5 e9 17 3c
       -0.13615042 -0.038692467 0.10426152 0.009272029
000050 70 01 09 be 81 ad b1 bd 63 31 e8 bd 4c 95 8d bd
       -0.13379455 -0.08675671 -0.11337545 -0.06913242
000060 c9 08 e1 3b cf c4 03 3d d3 81 94 3d 71 f7 61 3d
       0.0068675024 0.032170113 0.072513245 0.05516762
000070 7d f3 00 be 5c 75 f9 bd 07 ad b0 3d 16 21 93 3d
       -0.12592883 -0.12180588 0.08626752 0.07184045
000080 92 93 6f 3d 22 90 c8 bd b1 82 b2 bc 9e ec ec bd
       0.058490343 -0.09793116 -0.021790834 -0.11568569
000090 39 70 bd bd 5c a8 b8 3d c9 25 1a be e0 0b a8 bd
       -0.092499204 0.09016487 -0.15053476 -0.0820539
0000a0 f3 59 03 3e a1 12 84 3d 98 ee 0e 3e 60 25 62 3c
       0.12827282 0.06448866 0.13958204 0.013802856
0000b0 03 1e 59 bd 46 ee 85 bb 98 31 b2 3d b4 90 15 be
       -0.053007137 -0.0040872423 0.087008655 -0.14605981
0000c0 91 25 98 3d 18 88 86 3c 74 a2 c0 bd 64 53 5d 3d
       0.0742904 0.016422316 -0.094059855 0.054034606
0000d0 65 8a 92 bb 68 5d fd bd a6 8c 6f bd e0 c3 ad ba
       -0.0044720643 -0.123713315 -0.058483742 -0.0013257228
0000e0 76 3a d6 3d 0f ba af 3d 43 bd 00 be 60 51 1e bd
       0.10460369 0.0858041 -0.12572198 -0.038651824
0000f0 fc f0 62 bd dc 61 86 3d e0 7a f2 bd 14 9a dd 3d
       -0.0554056 0.06561634 -0.11839843 0.10820404
000100 3e fb 04 3e f6 04 0f be 70 2d d4 bb c5 99 fd bc
       0.12986466 -0.13966736 -0.006475143 -0.030957112
000110 76 06 2b bd c0 af c4 3d 79 bf b5 bc 05 8f 9b 3d
       -0.04175421 0.09603834 -0.022186028 0.07595638
000120 cf 62 8e bd 1b 55 88 3d 37 ca 23 bc 91 1c 9b 3d
       -0.0695244 0.066568576 -0.009996942 0.07573808
000130 36 6f 8c 3d 52 91 e0 bd 21 7c 31 bc 5c 48 a4 bb
       0.06857149 -0.10965218 -0.010832817 -0.0050135087
000140 14 1e 88 3d 78 aa 9a bd 59 8b ea 3d d3 42 e2 3c
       0.06646362 -0.075520456 0.1145236 0.027619755
000150 22 1f 1e be 4b 2a 80 3c db c1 c7 bd d0 03 01 bd
       -0.15441564 0.015645167 -0.09753772 -0.031497777
000160 10 f8 0d 3e e6 8c 05 3e 35 9b f4 3d 52 17 80 ba
       0.1386416 0.1304203 0.11943666 -0.0009772575
000170 79 9c bc bd b4 f6 38 3d c3 80 77 3d 70 45 96 bd
       -0.09209532 0.04515715 0.06042553 -0.07337463
000180 60 19 c2 bd 6f 4a 95 bd 22 6b ef bb d3 e9 26 be
       -0.09477496 -0.07289588 -0.0073064724 -0.16300134
000190 63 12 88 3c 7e fd cc 3d 52 ac 06 be 7c c5 30 bd
       0.01661033 0.10009287 -0.13151672 -0.043157086
0001a0 78 67 aa 3c 5d 86 fc 3c ab 37 a9 bd 6c 64 95 3d
       0.02080129 0.030825788 -0.08262571 0.072945446
0001b0 72 15 b9 bd 9b 43 ab 3d b7 19 36 be 8a 08 a2 3d
       -0.090372935 0.08362504 -0.17783247 0.07911785
0001c0 33 61 2c be 37 6e e9 3d 94 58 14 3e 86 4c 48 3d
       -0.16833954 0.11397975 0.14486915 0.048901103
0001d0 3c 57 93 bb f4 37 2b bd a6 3a 34 3c ca 00 d7 bd
       -0.004496483 -0.041801408 0.011000311 -0.104981974
0001e0 8b d3 97 3d 7e 5d 91 bd 15 42 d5 3d 20 3d c6 3d
       0.074133955 -0.0709791 0.10412995 0.096796274
0001f0 d8 9d 39 3d f3 e3 0c 3d 35 13 b0 3d 10 06 e6 3d
       0.045316547 0.034397077 0.085974135 0.11231625
000200 21 fd 0c be 84 5f ca bc d9 47 fe bc 19 4d 3a 3c
       -0.13768436 -0.024703749 -0.031040119 0.011370921
000210 ac d3 09 3d 23 07 3e 3d 2f 56 63 3d 64 61 0d 3e
       0.03364913 0.046393525 0.055502113 0.13806683
000220 11 7b c8 bd c2 71 2c 3d 98 a2 75 bd 76 8f 0d 3d
       -0.09789098 0.042100675 -0.059969515 0.034560643
000230 2f 97 37 bd c5 d9 30 3c d0 0f ed 3d 91 07 c3 bd
       -0.044821914 0.010794108 0.115752816 -0.095229276
000240 8c 11 23 be 8c f4 12 3d 85 c9 aa 3c d1 7e d6 3d
       -0.15924662 0.03587775 0.020848045 0.10473407
000250 e7 3d 07 3e 9c 01 7a 3d 39 66 a5 bc 88 44 d4 3c
       0.13207208 0.06103669 -0.020190345 0.025911584
000260 c9 13 ea bd f8 1a 1c bc dd 83 17 bd f4 46 00 be
       -0.11429555 -0.009527914 -0.03699099 -0.12527066
000270 88 e2 07 be ac bc f9 bd e5 fd 08 be 3a 13 ab bd
       -0.13270009 -0.121941894 -0.13378103 -0.083532766
000280 55 2e c4 3d eb b9 83 bd 59 77 c2 bc 45 8f 1b be
       0.0957915 -0.064319454 -0.02373855 -0.15191372
000290 01 f2 17 be d0 89 af 3d 24 b9 19 3d 1a 21 a0 3d
       -0.14838411 0.085712075 0.03753008 0.078188136
0002a0 cc b9 81 3c 9e 60 87 bd ec 44 09 3e 1b c2 f0 bd
       0.015835665 -0.06610225 0.13405198 -0.11755773
0002b0 0c 2e d0 3d 1c 46 02 be 35 7a e9 bc 67 2f 12 be
       0.10165033 -0.12722057 -0.028500656 -0.14275895
0002c0 fa 12 4b 3d 9e 85 a4 bd 9a 49 13 3e 8c 74 a7 bd
       0.049578644 -0.08033298 0.14383546 -0.081765264
0002d0 9c 83 6d 3c 9c 61 62 bd 04 6a f2 3c 61 7c 6b bd
       0.01449671 -0.05526887 0.029591568 -0.057491664
0002e0 41 98 7c bd 15 b5 f7 bd 4e 7c cb 3d ce f9 07 3e
       -0.06166864 -0.120950855 0.099358186 0.13278887
0002f0 7c e7 1c 3d 41 de 0b 3e d4 93 89 3d 62 84 12 be
       0.0383067 0.13659002 0.06717649 -0.14308313
000300 00 ef 81 3d 6a 7a f0 3a b2 b7 b1 bd 34 bf 62 3d
       0.06344414 0.0018347029 -0.08677615 0.055358127
000310 fc a8 02 3e d9 88 01 3e fd 69 88 3d c8 22 f5 3b
       0.12759775 0.1264986 0.06660841 0.007480953
000320 79 ae cc 3d ce fc 77 3d 82 72 88 bd 61 2d 3b 3c
       0.099942155 0.060543828 -0.06662466 0.011424393
000330 00 f9 08 be 96 4e ce 3d 66 b7 fe bd 48 f5 1c be
       -0.13376236 0.10073583 -0.12437324 -0.15327942
000340 10 64 3a b8 6b c1 85 39 ce ca a1 bc 08 1c 53 3d
       -4.4439046e-05 0.00025511844 -0.019750025 0.051540405
000350 d0 f0 90 3d da 7b 81 3d 4b ff c5 3d 92 15 35 bd
       0.07077181 0.06322451 0.09667834 -0.044210024
000360 55 43 6f bb c2 30 b9 bd 78 ff 6a 3d e9 8c 3b bc
       -0.003650864 -0.09042503 0.05737254 -0.01144717
000370 40 55 2f bb 60 6a a6 3d 2f 42 8e bd 1e bd c2 bd
       -0.0026753694 0.08125758 -0.06946217 -0.095087275
000380 51 19 3c bd 1b f8 f4 bd e3 66 bb bd 80 d7 bf bd
       -0.04592258 -0.11961385 -0.091504835 -0.09367275
000390 51 09 a2 bd e5 5c 6d 3d b8 7c 7e 3d 12 de f6 bd
       -0.07911933 0.05794992 0.06213066 -0.12054075
0003a0 9c b1 f0 bd e5 fc fd 3d d0 81 19 be 3d 63 bc 3d
       -0.11752626 0.124017514 -0.14990926 0.09198616
0003b0 85 66 a2 3d 36 60 04 be f5 87 e0 3d 26 b9 aa bd
       0.0792971 -0.12927327 0.10963432 -0.083360955
0003c0 13 ff a1 bd 72 d4 60 bd 7c 28 e1 3d c4 2f 40 bd
       -0.0790998 -0.054890104 0.1099405 -0.046920553
0003d0 d7 3c 09 3e 5e 1d 02 3e 7c 8b a7 bb eb ae 10 be
       0.13402115 0.12706515 -0.0051130634 -0.14129226
0003e0 65 02 0e bd b5 02 de bc c5 2b 08 be d3 60 02 3d
       -0.034670252 -0.0271009 -0.13297947 0.03183062
0003f0 ee 83 e2 bd 02 e2 18 bd a2 af 4f bd 38 33 71 bd
       -0.1106032 -0.037324913 -0.050704606 -0.058886737
