modelAttempt1_27/best_model.pth (torch, 403746 bytes, 15 tensors)

convs.0.bias f4 [128]
00000000: 7520 8939 0000 0000 3973 61bc 94d8 31bc
00000010: 0000 0000 29e3 4cba 0000 0000 0000 0000
00000020: 0000 0000 0000 0000 1cee a1bc 0000 0000
00000030: bfb5 8ebc 0000 0000 8147 7a3b 0000 0000
00000040: 0000 0000 46d4 98bc c672 dc39 0541 7cbb
00000050: 8873 eaba 0000 0000 ff32 5fbc 0000 0000
00000060: 0000 0000 0000 0000 3092 cebb 0000 0000
00000070: 7e6e 423b 062a 9a3a cde9 08bc 0000 0000
00000080: cac1 57bb 6734 6ebc 5ab8 8e3b 0000 0000
00000090: 8fe3 a2bc 0000 0000 0000 0000 dd55 8f3a
000000a0: 25c9 9abb 0000 0000 0000 0000 0000 0000
000000b0: 5598 313b 0000 0000 0000 0000 0000 0000
000000c0: 0000 0000 743c 933b 2f2f b83a 0000 0000
000000d0: 32c4 16ba c7bf 3c3b 7582 9fbc 0000 0000
000000e0: 6288 6c3b 7745 3cbb f86a 71bb 0000 0000
000000f0: 0000 0000 41f6 3bbc 0000 0000 0000 0000
00000100: 2192 8bbb aece 833a 0000 0000 0000 0000
00000110: c8b6 9bbb 0000 0000 ab09 76bc 4743 da39
00000120: 0000 0000 0000 0000 f657 7dbc fdd2 9abb
00000130: 0000 0000 0000 0000 0000 0000 0000 0000
00000140: 0000 0000 36bb 14bb 2a38 ae3b 549f 87ba
00000150: 0000 0000 0000 0000 0000 0000 9a40 3fbb
00000160: ee1c b6bc 0000 0000 20ff 1fbd 0000 0000
00000170: 0000 0000 0f8a 193b 0000 0000 0000 0000
00000180: 0000 0000 075b fabb a596 7cbc 726e 88bb
00000190: 0000 0000 0000 0000 0000 0000 21e2 2dbd
000001a0: 8d1e 30bd a217 04b9 89a3 b3bb 8c12 83b9
000001b0: 0000 0000 0000 0000 0000 0000 0000 0000
000001c0: e7fd 8c3b 0000 0000 0000 0000 0000 0000
000001d0: 0000 0000 0000 0000 0000 0000 e42e 47bb
000001e0: 0000 0000 0451 75bc 0000 0000 0000 0000
000001f0: 0000 0000 0000 0000 0000 0000 0000 0000
0.0002615486 0.0 -0.013760381 -0.010854859 0.0 -0.0007815832 0.0 0.0
0.0 0.0 -0.01976686 0.0 -0.017420648 0.0 0.0038189592 0.0
0.0 -0.018655907 0.00042047183 -0.0038490903 -0.0017887214 0.0 -0.013622998 0.0
0.0 0.0 -0.006304048 0.0 0.002966791 0.0011761792 -0.008356524 0.0
-0.0032921904 -0.014538861 0.0043554725 0.0 -0.019883899 0.0 0.0 0.0010935623
-0.0047236853 0.0 0.0 0.0 0.0027098854 0.0 0.0 0.0
0.0 0.0044932906 0.0014052148 0.0 -0.0005751281 0.0028800832 -0.019471386 0.0
0.0036092033 -0.0028727928 -0.003683744 0.0 0.0 -0.011472286 0.0 0.0
-0.0042593633 0.0010056102 0.0 0.0 -0.004752014 0.0 -0.015016953 0.00041630326
0.0 0.0 -0.015462866 -0.004724859 0.0 0.0 0.0 0.0
0.0 -0.0022694594 0.005316754 -0.0010347166 0.0 0.0 0.0 -0.0029182793
-0.022230592 0.0 -0.039061666 0.0 0.0 0.0023428237 0.0 0.0
0.0 -0.007640246 -0.015416776 -0.0041635567 0.0 0.0 0.0 -0.04245198
-0.042997885 -0.00012597305 -0.0054821414 -0.00025000086 0.0 0.0 0.0 0.0
0.0043027285 0.0 0.0 0.0 0.0 0.0 0.0 -0.003039294
0.0 -0.014972929 0.0 0.0 0.0 0.0 0.0 0.0

convs.0.lin.weight f4 [128, 1]
00000000: cd47 393e 0051 2fbd 60c5 2f3e 7f29 673d
00000010: 0802 3bbe c1dd 173e b90d 73bd 024f a9bd
00000020: 6450 37be 4d8d 5bbe 5d36 2c3d 46f7 40bd
00000030: dc38 883d 903c 35be 9bbc 273e 0b1c 22be
00000040: a688 18bd 52c9 d93c d9a6 e43d ac37 2e3e
00000050: ea31 473e 321c 2fbe b8e7 253d b6fa bdbd
00000060: 659b c1bc 364c 25be 7a86 423e 3516 22be
00000070: 01f1 f13d 5d4a 9d3d 357d 7c3d 54cb eebd
00000080: ca35 453e b2c0 053d 3fe1 023d 1e9e 42be
00000090: 5334 913d eb85 04bd 8258 cabd 06a8 3e3e
000000a0: 48e4 303d 715f f4bd 908d dfbd 3ebe 28bc
000000b0: 4ce7 fb3d dbba 61bd 6403 fcbd 4f40 97bd
000000c0: 32fc 24be 1578 a63d 1444 2c3e bce8 4fbe
000000d0: 9744 4a3d dec2 e93d 9a3d a53c 524b 9dbd
000000e0: 0ea7 ed3d 95dc e13d 1158 9d3d f139 1bbd
000000f0: 9dea 69bd 18c5 3d3c dd0c 1cbd 3c9f 83bd
00000100: 82a6 083e 8ea8 3e3e dde6 aebc 6cc8 45bd
00000110: 39f0 d0ba 18fa 52bc 7b58 173d b995 783d
00000120: b094 48be 6aff a2bd 110d 2a3e bc31 a23d
00000130: f6be 2fbc 8925 05be aa1c 07be 90d2 45be
00000140: daf8 8fbd f544 903d 8c1e 123e 957b c93d
00000150: 2836 43be 49ce 04be ee68 0bbd 6f7c 523e
00000160: 8e9f 6b3c 16c4 64bd e992 4c3d 9b3a a8bd
00000170: e0f0 0ebe d57a 233e 85d5 c8bd e515 31bd
00000180: b0b1 5bbe 66d6 0b3e 5f62 173e 6038 983d
00000190: b2fc 19be 12f5 59be e35c 33be d0a8 f23d
000001a0: 9233 783d a68f 393e 46da db3d 0ef8 5d3d
000001b0: 8e68 0abb 89f3 27be fc35 3dbe 5690 4ebe
000001c0: 614c bd3d 2cda d8bd 9bc7 31bd e030 febd
000001d0: 59f8 20bd 9c6f 1bbe 234d 10be d518 8c3d
000001e0: 4044 83bd 8f4c f23d 20b2 8dbd 8a00 22be
000001f0: 34dc 1bbd ce1a d6bd 1421 87bd 7b3d 52be
0.18093796 -0.042801857 0.17165136 0.056436058 -0.18262494 0.14830686 -0.05933926 -0.08267023
-0.1790176 -0.2144062 0.042044032 -0.04711082 0.0665147 -0.17698884 0.16380541 -0.1583101
-0.037239693 0.026585255 0.11164636 0.17013425 0.19452634 -0.171006 0.040504187 -0.09276335
-0.023633668 -0.16142353 0.18996611 -0.15828784 0.11813546 0.07680199 0.061642844 -0.116598755
0.192588 0.03265447 0.031953093 -0.1900563 0.07090058 -0.032354277 -0.09880163 0.18618783
0.043186456 -0.119322665 -0.10915673 -0.0102992635 0.12299976 -0.05510984 -0.12305334 -0.07385313
-0.1611183 0.081283726 0.16822845 -0.20303625 0.04938182 0.11414121 0.020170975 -0.07680382
0.11604129 0.11028401 0.07682813 -0.037897054 -0.05710851 0.011582635 -0.038098205 -0.06426856
0.13344768 0.18618986 -0.021350319 -0.04828684 -0.0015940733 -0.01287701 0.036949616 0.06068966
-0.1958797 -0.079588726 0.16606547 0.07919642 -0.010726681 -0.130026 -0.13194528 -0.19318604
-0.070298865 0.070444025 0.14269465 0.098380245 -0.19063628 -0.12969317 -0.034035616 0.2055528
0.0143813025 -0.055851065 0.049944792 -0.08214303 -0.13959074 0.15964825 -0.098063506 -0.04323377
-0.21454501 0.13656005 0.1478362 0.07432628 -0.15037802 -0.21284893 -0.17515902 0.11848605
0.060596056 0.18121204 0.10734992 0.05419164 -0.0021119448 -0.16401495 -0.18477625 -0.20172247
0.09243084 -0.10588488 -0.04340325 -0.12411666 -0.039299343 -0.15179294 -0.14091925 0.06840674
-0.06409502 0.11831009 -0.0691874 -0.15820518 -0.0380518 -0.10454331 -0.06598106 -0.20531265

convs.1.bias f4 [128]
00000000: 0bad 82bb 8a01 f8bb 0000 0000 d7fc 183b
00000010: 0000 0000 0000 0000 0000 0000 0000 0000
00000020: 0000 0000 406a 0639 0000 0000 5b53 c73b
00000030: de55 62bc 4fc9 c4bb 0000 0000 57a3 b93a
00000040: 0000 0000 0000 0000 0000 0000 0000 0000
00000050: 0000 0000 4743 72bb 5dcd 14bc 0000 0000
00000060: 0000 0000 c5ed 8ebb ddf1 993b 0000 0000
00000070: 9097 5dbc 0000 0000 4cf7 cb3b 0000 0000
00000080: 0000 0000 0000 0000 c843 0e3c 0000 0000
00000090: 71c6 eb3b 0000 0000 cf85 053c 0000 0000
000000a0: 3165 af3b 00f4 da37 0000 0000 cad1 47bc
000000b0: 0000 0000 0000 0000 0000 0000 0000 0000
000000c0: b8c9 c4bb 31e3 9a3b 0000 0000 a4fc b2bb
000000d0: 0000 0000 0000 0000 7e23 fc3b e0c8 c4bb
000000e0: 0000 0000 eff8 693b c610 3cbc 6dc9 c4bb
000000f0: ed0a 8bbc 7a55 abbb 0000 0000 d106 7f3b
00000100: 530f 883b eed1 68bc 3139 d6bb 0000 0000
00000110: 397b 113c 5455 dd3b 0000 0000 822c 81bc
00000120: aeb4 9b3b 0000 0000 663e abbb 0000 0000
00000130: 0000 0000 3b93 a8bb 7dc7 e03b 0000 0000
00000140: 0000 0000 eb9a 4fbc 8c31 10bc 0000 0000
00000150: 0000 0000 fa1c ab3b 0000 0000 0000 0000
00000160: 6cbc 2e3b 0000 0000 0000 0000 6ad6 49bc
00000170: 3cbc 563b 0000 0000 0000 0000 523a b83b
00000180: 0000 0000 0000 0000 0dbb c3bb 351f bfba
00000190: 0000 0000 0000 0000 c0ef 51bc 0000 0000
000001a0: 970a 1b3c 0000 0000 4ff8 0fbb 54cc 39bc
000001b0: 296c 91bb 53b0 9c3b 7eac 22bb 7ccc 9b3b
000001c0: 748d c63b 0000 0000 6da0 1a3c 0000 0000
000001d0: 10f7 5dbb 65cf 003c cde7 403b b9f8 323b
000001e0: 0000 0000 0000 0000 70f1 083a fe0a e9ba
000001f0: 0000 0000 4363 0e3c b614 16bc 0000 0000
-0.0039879135 -0.007568543 0.0 0.0023344064 0.0 0.0 0.0 0.0
0.0 0.00012818817 0.0 0.006082935 -0.013814418 -0.006005443 0.0 0.0014163059
0.0 0.0 0.0 0.0 0.0 -0.003696637 -0.009082166 0.0
0.0 -0.0043618404 0.004698022 0.0 -0.013524905 0.0 0.0062245484 0.0
0.0 0.0 0.0086831525 0.0 0.007195287 0.0 0.008149578 0.0
0.005352639 2.6101246e-05 0.0 -0.012196014 0.0 0.0 0.0 0.0
-0.006005492 0.0047267904 0.0 -0.005462246 0.0 0.0 0.0076946607 -0.0060053915
0.0 0.0035701354 -0.0114786085 -0.006005457 -0.016972983 -0.0052286955 0.0 0.0038913975
0.0041522174 -0.014210207 -0.0065375795 0.0 0.008879476 0.0067545567 0.0 -0.015768293
0.0047517633 0.0 -0.0052259443 0.0 0.0 -0.0051445044 0.0068597184 0.0
0.0 -0.012671213 -0.008800875 0.0 0.0 0.00522196 0.0 0.0
0.00266626 0.0 0.0 -0.012319187 0.0032766005 0.0 0.0 0.0056221867
0.0 0.0 -0.005973226 -0.0014581444 0.0 0.0 -0.0128135085 0.0
0.009462974 0.0 -0.0021968072 -0.0113402195 -0.0044379425 0.0047817617 -0.0024822052 0.004754601
0.006059343 0.0 0.009437663 0.0 -0.0033869185 0.007861947 0.002943504 0.0027308895
0.0 0.0 0.0005223965 -0.0017779765 0.0 0.008690658 -0.009160211 0.0

convs.1.lin.weight f4 [128, 128]
00000000: fbdb aa3a 6bc6 8fbd 16a8 afbd 722d 6abd
00000010: f5d4 9f3d 8b07 e7bd 0b98 0e3e bc02 c2bd
00000020: 9bd5 2f3d 91f3 1b3e 42ec 8fbd 409b d1bd
00000030: 29c4 abbd 727b 83bd b30e cabd 1579 1abe
00000040: e922 a1bd b716 5dbd 3513 033e 905d f9bc
00000050: 5c52 5e3c 44c8 44bd 316b a33c 305d 953d
00000060: b722 db3c a15b 9abc 5be1 093c eced 133e
00000070: 7fea dabd 595f 143e 9b6c 1cbd 5c90 df3d
00000080: 8850 ea3d 53a2 b63a 617b 79bb dd55 d93d
00000090: bcc3 c4bc b58f 2c3d 78fe 153e 286e 0ebd
000000a0: 98ad 72bd 7024 f33d 15d8 0c3e c254 163e
000000b0: 2af8 18be 9f76 ce3d ba53 9a3d c210 c8bd
000000c0: a4c6 cc3d a039 b3bd 00cd 9c3d aa70 563c
000000d0: 697f 303d b69c cabd f0d0 02bd 8872 aabd
000000e0: a158 a03d c83a 01be a396 bd3b 2e41 723d
000000f0: 9273 69bb 3e5e 4dbd 3a0a 0f3d 0a23 463c
00000100: 4a4f b5bd 6343 3cbd 0227 09bd 6ab4 b0bd
00000110: c849 073c 2fcd 42bd e1fc b8bd dc18 04be
00000120: 7672 ccbd 8e84 08bd 9930 f33d 7448 b8bc
00000130: e358 a8bd 321c efbd 91d8 d53c 084d 053e
00000140: ce45 0dbe 3436 e73d d61b 073e aca6 f63c
00000150: 866b 9c3d 9534 3a3d db0d 09be 3bf9 85bd
00000160: b502 12bd 3af8 babd ba99 e8bb 634c 043d
00000170: 1e90 ab3b 1a6c a13d 3ac5 b8bd 07de 033e
00000180: 0106 7fbd 8488 f23d 2270 0a3e c150 04be
00000190: 223b 16be e6ab e83d 03af ee3d 2422 a5bc
000001a0: c9dc ed3c 3382 953c a12c 51bd da7d 9a3d
000001b0: ff94 533d 7c3b 17be c6fb 2cbd 0b37 babd
000001c0: 5dd3 773d 8b86 1cbe ebb9 06be 0930 0abe
000001d0: 9762 57bd 78cb f1bd 8efd f9bc fea1 bbbd
000001e0: 1e91 c93d fa83 063e 4f94 723d 694e 73bd
000001f0: a4d8 7f3d 3c9c 06be cfd1 9cbd 9f74 03bd
00000200: 5d40 1abe 7e01 133e a084 be3d edc4 823d
00000210: c85b 933d 28a6 123e a26d 6ebd 6f6b 163d
00000220: 66dd 52bd f4e5 d4bc 6bef 06be ac78 bb3d
00000230: 559f efbd bf1f 8cbd 5d10 043e eb01 b8bd
00000240: b235 a13c 2acf 15be e06b c5bd 7da9 063e
00000250: 9251 993d 438f d43b b338 aabd 4f1e ef3d
00000260: 4a8f 133e cb53 fb3c 8e31 d9bd 13d2 ac3b
00000270: 616d 893d 92df 183d 7da8 053e 532d 0d3e
00000280: 628b 8f3d a115 e7bd 6904 82bc 91dc f23c
00000290: a5f9 6cbd 4691 3b3d 51a5 cc3d 92b1 b8bd
000002a0: 9608 5cbd 7e7e eebd 1ecf c23c 91ad bb3d
000002b0: 681d 063e 8b84 033c b62b cc3d 3266 17be
000002c0: 090e 5abb 5328 15bd 5cc6 9fbd 4d20 113e
000002d0: 1788 b43d 1352 0abe 8573 14be b5e1 92bd
000002e0: 2121 363d ab93 853d 0487 933d aa5f f23d
000002f0: 96ac c8bd 6b1c f53b 69b9 8bbd 1c19 98bd
00000300: dd67 c3bb 8cde abbc 8407 febd 8fec 11bb
00000310: de0d 8d3d 6298 0c3e 0724 43bd 0da0 c43d
00000320: c541 0cbd efa2 e6bd e024 003e 311f 32bd
00000330: 03b3 11bd ee2e d4bc 254c 0d3e bae6 85bd
00000340: 9684 26bd 59c9 dd3a ceb9 dcbd 9fea 553d
00000350: 80fc 033e 8cb8 623d e2cb 16bd 2364 16bd
00000360: 56f0 1ebe 3e29 f7bd 01f3 43bd 7cce ad3d
00000370: fed0 113e da36 95bc cea8 70bc d684 d63d
00000380: a781 03bd abc4 e4bd d1c9 a23d dcb0 96bd
00000390: b049 dfbd edc0 ac3a d199 d0bd 21f4 00be
000003a0: 88e3 b8bd 351e aabc 5291 323d ed3c 91bd
000003b0: 3ded 15be 2e6f 55bd ead0 113e 89cf 10bd
000003c0: 274d f4bd 7db5 6abd 642f 0d3e d205 c83c
000003d0: d8cf afbc 155e 193e 3954 813c f51c 823c
000003e0: d080 1a3e c577 bbbc 8cea dcbc dede fa3d
000003f0: 03c9 463d 86f3 dbbd e4b0 c83d 856c 83bd
0.001303553 -0.07020267 -0.08576982 -0.057172246 0.0780429 -0.112807356 0.13925187 -0.09473178
0.04292832 0.15229632 -0.070274845 -0.1023469 -0.08387024 -0.0642003 -0.09866085 -0.15085252
-0.07867987 -0.05397674 0.12800296 -0.030440122 0.013569441 -0.04804255 0.019948574 0.07293165
0.026749952 -0.01884252 0.008415545 0.14446229 -0.10689258 0.14489497 -0.03818951 0.10916206
0.11441141 0.0013933874 -0.0038067924 0.1061208 -0.024019115 0.042129237 0.14647853 -0.034773022
-0.059247583 0.11872184 0.13754304 0.1468077 -0.14938417 0.10081219 0.07535501 -0.09768821
0.09998825 -0.087512255 0.07656288 0.013088385 0.043090258 -0.098931715 -0.03193754 -0.08322626
0.078294046 -0.1262008 0.0057857796 0.05914419 -0.0035621864 -0.050138704 0.034921862 0.012093315
-0.08853014 -0.045962702 -0.033484466 -0.08628161 0.008257337 -0.04755896 -0.09032608 -0.12900108
-0.09982769 -0.03332954 0.11874504 -0.022495486 -0.08220079 -0.116753 0.026104243 0.13017666
-0.1379616 0.11289635 0.13194212 0.030108772 0.07637696 0.045460302 -0.13384192 -0.065416776
-0.035647113 -0.09129377 -0.0070984038 0.03229941 0.005235686 0.07881947 -0.09021993 0.12877665
-0.062261585 0.118424445 0.13519338 -0.1292143 -0.14670995 0.11360912 0.116544746 -0.020157881
0.029035943 0.01825056 -0.051067952 0.075435355 0.051655766 -0.14768785 -0.042232297 -0.0909253
0.060504306 -0.15285699 -0.1315686 -0.13494886 -0.052584257 -0.11806387 -0.030516412 -0.09161757
0.09842132 0.13136283 0.05922347 -0.05940095 0.062462464 -0.13145536 -0.07657205 -0.03209364
-0.15063615 0.14356038 0.0930264 0.06385217 0.0719524 0.14321196 -0.058210023 0.03672355
-0.051480673 -0.025988556 -0.13177268 0.09153876 -0.11700312 -0.068419926 0.12896867 -0.08984741
0.019678924 -0.14629808 -0.09639716 0.13150592 0.074862614 0.0064868047 -0.08311596 0.11675703
0.14410129 0.030679604 -0.10605155 0.0052740662 0.067103155 0.03732259 0.13052554 0.13786821
0.07009007 -0.11283422 -0.015871244 0.02964619 -0.057855267 0.04579284 0.09992469 -0.09018244
-0.053719126 -0.1164522 0.023780402 0.091639645 0.13097155 0.008027206 0.09969275 -0.14785078
-0.0033272526 -0.03641541 -0.07801506 0.14172478 0.088150196 -0.13507871 -0.14497192 -0.071719564
0.044465188 0.06522306 0.072034866 0.11834653 -0.09798543 0.0074801943 -0.068224736 -0.07426664
-0.005963309 -0.020980142 -0.12403777 -0.0022266244 0.068874106 0.13730004 -0.04764178 0.0960084
-0.03424241 -0.11261546 0.12514067 -0.043486778 -0.03557111 -0.025901284 0.13798578 -0.06538148
-0.040653788 0.0016920968 -0.10777627 0.052225705 0.1288929 0.05535178 -0.03681553 -0.03671659
-0.15521368 -0.12068413 -0.04783917 0.084866494 0.1423988 -0.018214632 -0.014688684 0.10474555
-0.032106068 -0.11170324 0.0794865 -0.07357952 -0.10902727 0.0013180055 -0.10185588 -0.12593128
-0.09027773 -0.020766357 0.04359562 -0.07091699 -0.1464128 -0.052107982 0.1423985 -0.03535417
-0.11928778 -0.057301987 0.1378761 0.024416838 -0.021461412 0.14977296 0.01578723 0.015882948
0.150882 -0.022884259 -0.02696731 0.1224954 0.048531543 -0.10739808 0.09799364 -0.06417183

convs.2.bias f4 [128]
00000000: 0000 0000 0000 0000 4269 9fbb 0000 0000
00000010: 0000 0000 3fed fdbb 0000 0000 986f 2e3c
00000020: 0000 0000 077c 5bbc 0000 0000 c795 cfbb
00000030: 0000 0000 0000 0000 6aaa 303c cd1f 513c
00000040: 0000 0000 5a86 efbb 72ef 6bbb 9484 ba3b
00000050: 0000 0000 cf2f 84bc 6d08 a5bb 0000 0000
00000060: bf4b 6e3c 9172 6a3c 9b1e 433c 7fc9 c4bb
00000070: 0000 0000 319c b0bb 0000 0000 9083 1b3c
00000080: 0000 0000 0000 0000 e238 64bc 0bef 3dbb
00000090: 0000 0000 0000 0000 0000 0000 0000 0000
000000a0: 0000 0000 0000 0000 0000 0000 672f 37bb
000000b0: c0c9 c4bb 3e90 f8bb 0000 0000 0000 0000
000000c0: db45 4fbc 32ac ec3b 0000 0000 04b6 0b3c
000000d0: 0000 0000 0000 0000 14be a0bc 0000 0000
000000e0: fd46 fbbb 56bd 46bc 0000 0000 2a26 b6bb
000000f0: 8b2f 38bb 10f3 543c 0000 0000 faa6 a23b
00000100: 793c 473c 0000 0000 6fcf 23bc 0000 0000
00000110: 0000 0000 fc14 1cbb 0b81 c5ba 0115 d23b
00000120: 3cde 283c 0000 0000 0000 0000 884e 683c
00000130: 0000 0000 e0b9 323c 8939 85bb 0000 0000
00000140: 0000 0000 0000 0000 186e 18ba 0000 0000
00000150: 0000 0000 0000 0000 e977 82bc 1536 afbb
00000160: 3aaa 543c 0000 0000 307d 88bc 0000 0000
00000170: 0000 0000 e8d9 0fbc f88a 273c 58db d2bb
00000180: 88d5 3e3b e9ee 643c 0000 0000 0000 0000
00000190: 9b81 1d3c 0000 0000 ca23 86bb 0000 0000
000001a0: 0000 0000 3dae 223c 0000 0000 0000 0000
000001b0: f96c 31bb fbe0 0bbc 0000 0000 07a9 493c
000001c0: fc41 2abc 0000 0000 4e66 0eba fbe7 203c
000001d0: e0ba 133c c86d 803b fd90 e0bb 7fc9 c4bb
000001e0: 0000 0000 2daa 613c 0000 0000 0000 0000
000001f0: 6677 1dbc 0000 0000 56ca 1a3c d670 fcb8
0.0 0.0 -0.0048648426 0.0 0.0 -0.007749229 0.0 0.010646723
0.0 -0.01339627 0.0 -0.0063349935 0.0 0.0 0.010782817 0.01276393
0.0 -0.007309717 -0.0036000875 0.005692074 0.0 -0.016136078 -0.005036405 0.0
0.014544426 0.014309541 0.011909152 -0.0060054655 0.0 -0.005389713 0.0 0.009491816
0.0 0.0 -0.013929578 -0.0028981592 0.0 0.0 0.0 0.0
0.0 0.0 0.0 -0.0027951838 -0.006005496 -0.0075855544 0.0 0.0
-0.012650932 0.0072226757 0.0 0.008527283 0.0 0.0 -0.019621886 0.0
-0.0076683746 -0.012130102 0.0 -0.0055587487 -0.002810451 0.012997404 0.0 0.004963753
0.012160414 0.0 -0.0099981865 0.0 0.0 -0.0023816219 -0.0015068365 0.0064111953
0.010306891 0.0 0.0 0.01417888 0.0 0.010908574 -0.0040656966 0.0
0.0 0.0 -0.0005814745 0.0 0.0 0.0 -0.015926318 -0.0053470233
0.012980038 0.0 -0.016661257 0.0 0.0 -0.00877998 0.010226004 -0.006434839
0.0029118974 0.013972976 0.0 0.0 0.00961342 0.0 -0.004093622 0.0
0.0 0.009929237 0.0 0.0 -0.002707301 -0.008537526 0.0 0.012308366
-0.010391708 0.0 -0.00054321147 0.009820933 0.009016722 0.003919337 -0.0068532215 -0.0060054655
0.0 0.013773483 0.0 0.0 -0.009610986 0.0 0.009447655 -0.00012037314

convs.2.lin.weight f4 [128, 128]
00000000: 09c6 8f3b 7bc6 4d3d f742 153e 34c7 97bd
00000010: ed3e 1abe 683c 323c 5e7c 0abd c907 8bbd
00000020: 3420 4d3d be68 153e 26c2 d93d 74f6 e4bc
00000030: 1e84 f03d b921 39bd 1802 10be 815a 8abd
00000040: 4172 edbd 8ab6 363d 1331 dc3d d72b 403d
00000050: 3486 d5bc 7481 4f3d 6c9f 51bc 078a ebbd
00000060: 3802 1b3e e630 e53c dc1f 0cbe 6f93 9e3c
00000070: dffd 083e 6101 48bc af4c 333b 2004 62bd
00000080: 80f1 89bd 2ac1 94bd 34fd 0b3d 95e5 16be
00000090: 3ce8 9abd e8b7 013e 8d2d fe3c eac8 12bd
000000a0: 4c6b d93c 63a5 efbc c8a0 4f3c 61c6 06be
000000b0: 734e 1c3e f655 dcbd 8c81 e33d aa60 e3bd
000000c0: cd3b a33c 6062 03be 0419 fcbb 29fd 963d
000000d0: 675e 18be 1248 afbd 5fdf d5bd 24b2 c1bd
000000e0: 5277 b63d 996b f63d 57ff efbd 01dc ad3d
000000f0: f38b f839 1a63 08be 8a05 dbbd 3861 a2bb
00000100: 8e43 f6bc 8bc8 afbd b856 f9bc c6f7 c5bd
00000110: d814 983d 78cb 07be 9a8b 5b3d 14f2 91bd
00000120: 45ab 6a3d a2e6 f23d b460 353d 566d 543d
00000130: f1e5 cf3d 8b15 e8bd 3e68 523d 5822 e53d
00000140: 5441 d13d 6fe4 16bd 7eed e8bd 120f 083e
00000150: a1f9 60bc 8ddd ed3c 0454 87bd aa7f e53d
00000160: c4b4 5dbd 1754 31bb 3e3f a03d 3d4b f8bd
00000170: 9d0c 5dbd c659 7a3d 6273 c33d 71ce 3abd
00000180: e446 543d 5914 a3bd e8fe 17be eba2 a2bd
00000190: 7f10 08be 200f 0f3e e6b3 cabd 4aa5 853d
000001a0: 678c 27bd 177e 3ebd 97c5 b73c 984b 4e3d
000001b0: 38bb 853d 49b9 e93d e69d 2bbc 646b e63d
000001c0: 4108 503d a956 aabd ad26 f7bd f8b7 1cbe
000001d0: 41dc c13d 1bb8 f73d 353d f33d 463f 8dbd
000001e0: dbeb b93d 0935 a73d 5892 e93d 4746 d6bd
000001f0: edce 993d 3e66 ebbd 17ef 8a3d 2c2d 733b
00000200: fe0f 99bd e39c 013e 1b14 18be 6186 dfbc
00000210: 41d3 e93b 9387 c6bd 5714 d63d 10c5 e23b
00000220: c190 1bbe a74a f0bc c29c da3c 5655 373d
00000230: 9d3c 09bd a5df 68bd d01b a13d c4fe dcbd
00000240: 4ecd 50bc d955 163c 0aa0 093e 1e0d 04be
00000250: 3f44 88bd 0803 d83d 1369 b53d b9af f5bd
00000260: 59e2 a9bd 4fc4 babd 75aa a03d 5911 f13d
00000270: 80ae 77bc 3fe2 e4bc 8f69 f7bd bef6 343d
00000280: 3b28 b53d 2078 b5bd ebbf 233d 998f 363d
00000290: 3e9f b6bd 8806 8abd 3225 9dbd e757 a2bd
000002a0: 5838 0cbe 2319 c3bd 2d23 fe3c 0a3f 353d
000002b0: b067 1cbd 795d 0f3c 11eb 133e 150c a73d
000002c0: f999 74bd 5a17 113e 326a e9bc b500 423d
000002d0: 4c1a e3bc d64a c63d 8c06 833c f015 8bbc
000002e0: b0c2 aa3d fb9d 8f3d 0255 b03d fdbc 123e
000002f0: 8bd8 cbbb aba7 b33d a83e e4bd fa6b 223d
00000300: e912 13be ffbb a1bc 19a8 94bd 8290 d53d
00000310: e022 f23d 4fc2 02be abe3 f73d e3e6 e73d
00000320: 34b5 703b ef65 003d 5382 e7bb 3b15 bdbd
00000330: 1fb1 143e 25af 143e 4240 4fbd 535a 423d
00000340: e6fb c63d 61e8 853d 411f e53d 419a 983d
00000350: ad63 5ebd d34b 35bd a78b cbbc 7f3d 75bc
00000360: ccb4 34bd 5b97 fbbd c1a9 1a3e e677 8f3d
00000370: adad 79bc aa0c a1bd 96f8 c43c c7af d9bd
00000380: 2140 76bd 3aa1 46bd 7546 e63d 0839 353b
00000390: b0f6 873d dc7b 223c 6fd9 e73b 1894 163e
000003a0: 5382 033c 1558 043d 7863 6abd 44eb a7bd
000003b0: 371e 11be 3c8b a53c 62f8 90bd ee53 a2bd
000003c0: 60eb d0bd 25ec 8abb f893 873d 3f6c 1cbe
000003d0: db2f 19bd 0272 0b3e 7a27 f0bc 1bab cebd
000003e0: 16a1 00be 521c a8bd 5a8b 0c3e 858f b2bd
000003f0: bb18 b9bd 5b02 dbbd 8e13 8a3c 8e50 ab3d
0.0043876213 0.050238114 0.14576326 -0.07411042 -0.15063067 0.01087866 -0.033810012 -0.06788594
0.05007954 0.14590737 0.10632734 -0.02794955 0.11743949 -0.045198176 -0.14063299 -0.067555435
-0.11594058 0.044607677 0.10751548 0.04691681 -0.02606497 0.050660565 -0.012794357 -0.11500936
0.15137565 0.027977418 -0.13684028 0.019357411 0.13378094 -0.01220736 0.002735894 -0.055179715
-0.067355156 -0.072634056 0.03417702 -0.14736016 -0.075638264 0.12667811 0.03102758 -0.035836138
0.026540421 -0.029253667 0.012672611 -0.13161613 0.15264301 -0.10758583 0.111086935 -0.111024216
0.019925976 -0.12830496 -0.007693412 0.07372505 -0.14879762 -0.08558668 -0.10442995 -0.09457806
0.08909477 0.120322414 -0.11718624 0.08489228 0.00047406516 -0.13319054 -0.10694416 -0.004955437
-0.03006151 -0.085831724 -0.030436859 -0.096664 0.07425851 -0.13261211 0.05359993 -0.07126251
0.05729224 0.11860396 0.044281676 0.051862083 0.1015128 -0.11332234 0.051368944 0.11188191
0.102175385 -0.036838945 -0.11373423 0.13286999 -0.013731391 0.029036308 -0.066078216 0.112059906
-0.05412747 -0.0027058178 0.078245625 -0.121237256 -0.053967107 0.06112077 0.09543492 -0.045607034
0.05182542 -0.079628654 -0.14843333 -0.079412304 -0.13287543 0.13970613 -0.09897594 0.06525667
-0.040905382 -0.046506967 0.022433085 0.05036506 0.0652985 0.114122935 -0.010474658 0.11250952
0.05078912 -0.0831731 -0.12067924 -0.15304554 0.09465838 0.12095662 0.11876909 -0.06896834
0.09078189 0.081644125 0.11404866 -0.10462623 0.07510171 -0.114941105 0.06783884 0.0037105782
-0.074737534 0.12657504 -0.1485142 -0.027285757 0.007135779 -0.096938275 0.10453098 0.0069204643
-0.15191938 -0.029332472 0.026686076 0.044759117 -0.03350507 -0.05685391 0.07866633 -0.1079078
-0.012744261 0.009175741 0.13439956 -0.12895629 -0.06653642 0.10547453 0.08857932 -0.11996407
-0.082951255 -0.09119474 0.07845012 0.11770887 -0.015117288 -0.027939914 -0.120806806 0.044180624
0.08845564 -0.08860803 0.03997795 0.04457054 -0.08917092 -0.06739527 -0.0767311 -0.07926922
-0.13693368 -0.09526279 0.031022632 0.04424957 -0.03818482 0.008750313 0.1444514 0.08156601
-0.059717152 0.14169064 -0.02849302 0.047363956 -0.0277225 0.096822426 0.015994333 -0.016978234
0.08337915 0.07012554 0.08609964 0.14329906 -0.0062208823 0.087722145 -0.11144763 0.039653756
-0.14362682 -0.019742964 -0.072586246 0.10427953 0.11823058 -0.12769435 0.12103971 0.11323335
0.00367291 0.03134721 -0.0070650964 -0.09232565 0.14520691 0.14519937 -0.05059839 0.04744942
0.097160146 0.065384634 0.11187602 0.074512966 -0.054294277 -0.044261765 -0.024846865 -0.014968275
-0.044117734 -0.12284728 0.15103818 0.07005291 -0.015239161 -0.078637436 0.024044316 -0.1062923
-0.06011975 -0.0484936 0.11243907 0.0027652401 0.06638849 0.009917226 0.0070754807 0.14704931
0.008026677 0.032310564 -0.057223767 -0.0819917 -0.14171682 0.020207994 -0.07078625 -0.079261646
-0.10201144 -0.0042395764 0.0662002 -0.15275668 -0.037399154 0.1361771 -0.029315699 -0.100912295
-0.1256145 -0.08208527 0.13725033 -0.087187804 -0.0903792 -0.10693809 0.016855028 0.08364974

convs.3.bias f4 [128]
00000000: 0000 0000 0000 0000 0357 8c3c 84c9 89bc
00000010: f026 fd3b a400 99bb 8276 823c a002 17bc
00000020: 4c40 9e3c 0000 0000 0000 0000 2bb5 b53c
00000030: 0000 0000 1e57 a13c 0000 0000 86f5 8e3c
00000040: 383f a53c 0000 0000 0000 0000 0000 0000
00000050: 0000 0000 0000 0000 eea9 c23b 2776 bb3c
00000060: 0000 0000 cb8a 14bc 0000 0000 6bf0 76bc
00000070: 591c 91ba 0000 0000 0000 0000 e9ab 733c
00000080: 7e92 71bb d8f3 08bc 73c6 27bc 4a1d 583c
00000090: 0000 0000 fec8 f3bb 8796 0ebc 47fe a7bb
000000a0: b009 503c 9198 50bb 0000 0000 6314 a23c
000000b0: 14db 153c 0000 0000 efaa dfbb 0000 0000
000000c0: 8e28 023c 0000 0000 e4ee 09bc 9d91 853c
000000d0: 0000 0000 5d27 6c3a c906 ebbb da40 893c
000000e0: 84ea efbb 0000 0000 2b8d 32ba 0000 0000
000000f0: 0e30 233c 0000 0000 0000 0000 0000 0000
00000100: c0c9 c4bb 0000 0000 0000 0000 6177 bf3b
00000110: fc0c a43c 0000 0000 1347 a63c d209 a53c
00000120: 7683 733c 0000 0000 8270 a4bb 75e4 37bc
00000130: ff92 c13b fcca b03b 7eaf 683c 8875 8f3c
00000140: 0000 0000 9e4d 20b8 e7da afbb ef1a fbbb
00000150: e8e2 473c 9ec9 c4bb ac0a 3c3b 0000 0000
00000160: 6fdb 863b 88c9 c4bb 0000 0000 0000 0000
00000170: 77b1 f13b 6bb9 7a3c 0000 0000 0000 0000
00000180: 95f7 0f3c 0000 0000 0000 0000 c8c5 643c
00000190: 0000 0000 2cf3 0dbc 0000 0000 fccb a5ba
000001a0: a41c 4d3c 1428 84bc 0000 0000 3c8a 1cbc
000001b0: 2a67 913c 623f ae3c bbc4 6d3c b50e c63b
000001c0: ac48 8b3c 0000 0000 b86f cdbb 6ef9 3fbc
000001d0: 0000 0000 6cd2 03bc a5eb 873a 3102 523c
000001e0: 162a 4a3c 0000 0000 b590 9b3b 0000 0000
000001f0: fca1 7fbc 9c53 45bc 0000 0000 e1de b53c
0.0 0.0 0.017131334 -0.016819723 0.007725589 -0.004669266 0.01592565 -0.009216934
0.019317769 0.0 0.0 0.022181114 0.0 0.019694861 0.0 0.01745106
0.020171747 0.0 0.0 0.0 0.0 0.0 0.0059406674 0.022883488
0.0 -0.009066294 0.0 -0.015071969 -0.001107107 0.0 0.0 0.01487253
-0.0036860998 -0.008358918 -0.010240185 0.013190577 0.0 -0.0074397316 -0.008702881 -0.005126748
0.012697622 -0.0031829218 0.0 0.019785112 0.009146471 0.0 -0.006825797 0.0
0.007944239 0.0 -0.008418772 0.016304785 0.0 0.0009008551 -0.0071724397 0.016754556
-0.0073216576 0.0 -0.0006811197 0.0 0.009960188 0.0 0.0 0.0
-0.006005496 0.0 0.0 0.0058430885 0.020025723 0.0 0.020297563 0.020146284
0.014862886 0.0 -0.005018295 -0.011223902 0.005907416 0.0053952914 0.014201997 0.017512098
0.0 -3.821926e-05 -0.0053666714 -0.007663123 0.012200095 -0.00600548 0.0028692884 0.0
0.004115514 -0.0060054697 0.0 0.0 0.007375892 0.015302996 0.0 0.0
0.0087870555 0.0 0.0 0.01396317 0.0 -0.008663934 0.0 -0.0012649293
0.0125190355 -0.016132392 0.0 -0.009554442 0.017749388 0.021270458 0.014512236 0.0060442337
0.017002426 0.0 -0.0062694214 -0.0117171835 0.0 -0.008045774 0.001036991 0.012817905
0.012339136 0.0 0.004747475 0.0 -0.015602585 -0.01204386 0.0 0.022201004

convs.3.lin.weight f4 [128, 128]
00000000: 70be ef3d ce63 a83b fe2f 8e3c e455 883d
00000010: 17d9 0d3e 5f38 b6bd e574 f33d 3120 c93d
00000020: b769 01bd 937d 743d f2f2 b63d 4a69 a83d
00000030: 319f 0a3e 2b13 b53d eb26 ccbd 0697 0d3e
00000040: 3e7d c9bd 6e54 14bd 0904 8ebd 07b3 e1bc
00000050: 399a 46bd 1033 d03d 20d7 75bc eba8 a7bc
00000060: c177 08bd a708 33bd e114 15be 4fe3 4cbd
00000070: 383a 9e3d 93d0 093e 60af 6d3d b938 dc3d
00000080: d048 17be c88e 1b3e 6d35 d03d 7734 f4bd
00000090: d72a fbbc 5ac6 153e 986f 05be 3580 43bc
000000a0: 3352 0bbd 6d66 563d 1055 92bd ebd0 13be
000000b0: 03ac e2bd 8313 f8bd e5aa 203d 10ed 01be
000000c0: de8f dbbc 715a 61bd e144 3fbd c8c4 a7bc
000000d0: 3af5 f03d 0330 573d c082 11be 84d6 7d3b
000000e0: da51 fb3d 8d8b d8bd bc52 18be 275c 43bc
000000f0: 4b0f f8bc ab4d 9b3c 688a e0bc 1547 12be
00000100: 29c1 b4bc b31b ef3d be6a 123d a767 f3bd
00000110: 6ccb f23c 3056 ed3d 9221 1e3c 3b84 e73d
00000120: 8004 e2bd 184e 1a3e 62be 79bd 1577 9fbd
00000130: d843 1b3e 0740 e6bd f870 88bd 740c 36bd
00000140: 4c5d 0a3e dca6 f1bc 8183 06bd f8cd e0bd
00000150: 8b80 183e a53b 04be fac8 4e3d 30fe ce3d
00000160: 1b6f d3bc c047 0b3e 27da 4fbd f258 5b3d
00000170: 5632 013e 68f0 f5bd bb47 583c 1778 babd
00000180: be73 86bd d25f 61bd 99cc 1abe bc66 f2bd
00000190: 11e9 f43d da38 113e a9d7 dbbd 6892 93bc
000001a0: eb20 31bd 82de a33d 2550 033e 647f ee3d
000001b0: 606f 043e 81f6 a13d 0af1 49bd a37c 703c
000001c0: 7668 803c 9cd3 18be 0bfc fc3d d572 fdbd
000001d0: b84d 1cbc fcf2 52bb fb11 dd3d 708d 10bc
000001e0: 0d59 a8bd ed57 36ba f7fe f03d 830b f93d
000001f0: 4c79 ac3d ccf3 1dbd d686 103d 3932 3f3d
00000200: 9942 763d 9889 e13d e3ae 0cbe 5033 5abd
00000210: c5f5 90ba 436d 163e a80f 9abd cfc8 8a3d
00000220: 447d 08bd 134d 09be cc54 0b3e 4fed 7b3d
00000230: 13fa bdbd 31ac c43d 03ed fb3d 45cd c5bc
00000240: 543a dd3d 9be0 0cbe 91b0 0bbe 78f1 e63d
00000250: 36e8 283d e2c2 a23d e32a 013a ea06 203d
00000260: e277 19be 4985 10be eab7 dc3d ea38 19be
00000270: 65a4 7b3d 6646 9f3c 0029 ae3c 7d87 96bc
00000280: eb8d 12bb 2c7a b43d e698 8a3c 2ea9 dd3d
00000290: 8285 0c3e 00da d0bd 214d 2c3d d73c e5bd
000002a0: d8c0 02be 0271 22bd fb34 033e 8154 4fbd
000002b0: 796f 983c 6f52 02be f396 70bd eecf 1b3e
000002c0: 1395 083e 9d48 41bb d111 d8bd 2441 c0bc
000002d0: 4f77 e03c 27f5 fcbd f82f 363d 2956 8fbc
000002e0: 4ce7 14be 06db 1b3e b5bd 3bbd c16b 0a3d
000002f0: 359d 593d d306 0a3e bf65 b63c acfb 863d
00000300: dc49 163e 63d0 ebbd 5a41 aa3d a70f bfbd
00000310: 953a 0abe 237b 2cbd a606 0c3e baf8 26bd
00000320: cbb5 193e cf7c 293d e609 3b3d 1d63 0abe
00000330: e69d 33bc 75b4 3cbd 55af 333d 4699 71bd
00000340: 36e7 4cbd ca63 75bd a308 56ba 4c4e f23d
00000350: f1bb dcbd 4ee6 033e b5e2 84bc 6e88 50bd
00000360: f967 813d cc01 bbbd 0bec 473d fe55 013e
00000370: 179a c3bd 5673 0f3e 245a b83d d88d ca3d
00000380: a384 e2bd d9dc 5e3d a945 1a3d e806 05be
00000390: 57ff 103d 9628 2739 f99d c63d f3f2 95bd
000003a0: ffb1 cf3d 3bb1 0cbe 9044 b6bc 29bb 073c
000003b0: 05d5 5e3c 938c e6bd b7de 81bd 0f62 98bd
000003c0: bfd2 9cbd 540f 94bc c8b3 32bd e7db 9ebd
000003d0: 5891 44bd 0ef2 36bd 9999 89bd 3ec2 a1bd
000003e0: 9c36 e03d 6265 e7bd 04b1 1a3e c2e5 cbbd
000003f0: 5eaa 303d 71db dfbd 9b66 62bc 6408 bdbc
0.11706245 0.005138851 0.017356869 0.06657007 0.13852344 -0.08897471 0.1188753 0.09820593
-0.03159496 0.05969007 0.08933057 0.08223207 0.13537289 0.088415466 -0.099683605 0.13827142
-0.09838341 -0.03621333 -0.069343634 -0.027551187 -0.048486922 0.101659894 -0.015004903 -0.020466289
-0.03331733 -0.043709423 -0.14558746 -0.050021466 0.07725948 0.13458471 0.05802858 0.107530065
-0.1477387 0.15191185 0.1016644 -0.119240694 -0.030660076 0.14626446 -0.13030851 -0.011932422
-0.03401394 0.052343775 -0.07145131 -0.14435165 -0.11067965 -0.121130966 0.039225478 -0.12688088
-0.026802 -0.055017892 -0.046696547 -0.020479575 0.11765523 0.052536022 -0.14210033 0.0038732598
0.12271471 -0.10573492 -0.1487531 -0.011923826 -0.03028073 0.018957933 -0.027409747 -0.14284928
-0.022064762 0.11675205 0.03574633 -0.118850045 0.029638015 0.115887046 0.0096515585 0.11304518
-0.110360146 0.15068853 -0.06097258 -0.07786385 0.15162599 -0.11242681 -0.06662172 -0.04444547
0.13512152 -0.02949851 -0.032840256 -0.109767854 0.14892785 -0.12913378 0.050484635 0.10107076
-0.025809815 0.13601589 -0.050745156 0.05355162 0.12616858 -0.120087445 0.013200696 -0.091049366
-0.06565045 -0.055023022 -0.1511711 -0.11836001 0.119585164 0.14181843 -0.10734493 -0.018014148
-0.043244284 0.08001424 0.12823541 0.116453916 0.12933111 0.07908345 -0.04930214 0.014678153
0.01567481 -0.14924473 0.12352761 -0.12375418 -0.009540014 -0.0032188287 0.10794445 -0.008822784
-0.0822011 -0.0006955851 0.11767381 0.12160399 0.08421573 -0.03856258 0.03528484 0.046678755
0.060122106 0.11012572 -0.13738589 -0.05327159 -0.0011059573 0.14690118 -0.075225174 0.067765824
-0.033322588 -0.13408308 0.13606566 0.061505612 -0.092762135 0.096031554 0.12301066 -0.024145732
0.10802141 -0.13757555 -0.13641573 0.11276525 0.04123708 0.07947327 0.000492735 0.039069094
-0.14987138 -0.14113344 0.10777266 -0.14963117 0.061436076 0.019442748 0.021259785 -0.018375153
-0.0022362422 0.08812365 0.01691861 0.10823284 0.13722804 -0.1019783 0.042065743 -0.11193245
-0.12768877 -0.039658554 0.12813179 -0.0506177 0.018607842 -0.12726758 -0.058737706 0.15216038
0.13338117 -0.0029492744 -0.10550273 -0.023468561 0.02740064 -0.123514466 0.04447934 -0.017497139
-0.14541358 0.1522027 -0.045835216 0.03379417 0.05312844 0.13479166 0.022265313 0.06590971
0.14676613 -0.11514356 0.08313246 -0.09329157 -0.1349891 -0.04210962 0.13674411 -0.040764548
0.15010755 0.041378792 0.045663737 -0.13514371 -0.010962939 -0.046070535 0.04386838 -0.058984064
-0.050025187 -0.05990962 -0.0008164739 0.1183134 -0.107780345 0.12880823 -0.016221384 -0.05091136
0.06318659 -0.09131202 0.048809092 0.1263046 -0.09550875 0.14008841 0.09001568 0.09890336
-0.11060455 0.054409835 0.03766409 -0.12990916 0.03539976 0.0001594148 0.096981 -0.073217295
0.10141372 -0.13739483 -0.02224949 0.008284369 0.0136005925 -0.11257281 -0.063413076 -0.07440578
-0.07657384 -0.018073715 -0.043628484 -0.07756787 -0.047990173 -0.044664435 -0.067187496 -0.07898377
0.10947916 -0.11298634 0.15106589 -0.09955932 0.043131225 -0.10930527 -0.013818408 -0.02307529

convs.4.bias f4 [128]
00000000: 4975 143d 0000 0000 bebd e83c 0000 0000
00000010: 367b a13c 0000 0000 36fa 8b3c a922 b83c
00000020: ef90 01bc dda0 c63c 0000 0000 279e ab3b
00000030: 9faa aebb e557 76bc d609 67bc 0000 0000
00000040: 9e39 a63c 0000 0000 0000 0000 cf58 963c
00000050: 0000 0000 6f0e f2bb 0000 0000 43af 863c
00000060: 0000 0000 b0c9 c4bb 8417 cabb 0000 0000
00000070: 08fc eabb 0000 0000 62f8 143c 07c6 c43b
00000080: 1360 003c 0000 0000 0000 0000 fa54 a33c
00000090: 42a6 aa3c 0000 0000 07b7 f0bb b86a 993c
000000a0: 93cc 683c 0000 0000 958f ae3c 99f2 2dbc
000000b0: 0000 0000 7579 b83c 0000 0000 0000 0000
000000c0: 0000 0000 0000 0000 0000 0000 4821 e7bb
000000d0: 68ea 9ebb 47b9 16bc 207f 5e3a 0000 0000
000000e0: 801d 70bc fec4 53bc 0000 0000 0000 0000
000000f0: 0000 0000 8082 73ba 2893 9ebc c1c9 c4bb
00000100: eb0f e5bb 8199 753c cbc9 c4bb 92c0 ce3b
00000110: 0000 0000 ccc9 c4bb 0000 0000 0000 0000
00000120: a901 603b 0000 0000 c9c9 c4bb c8c9 c4bb
00000130: 0000 0000 0ca2 65bb 33b2 b33c 0000 0000
00000140: 220b 3f3c 5570 883c 7b16 ba3c 0000 0000
00000150: 49e2 3c39 0000 0000 c7c9 c4bb b825 153c
00000160: 51f4 95bc 0000 0000 c242 b1bb 2c08 193c
00000170: 3ff6 463c 3342 643b bbac 8e3b 2b6a 7fbc
00000180: 787a 603b 0000 0000 0000 0000 0c95 be3b
00000190: cdbb b53c d1a3 a7bb a078 783c 0000 0000
000001a0: 46a7 b63c 0000 0000 6ff9 93bc 0000 0000
000001b0: 562c 23ba a0c1 10bc 6114 883c 1338 09bc
000001c0: 0000 0000 0000 0000 0000 0000 1989 153b
000001d0: 0000 0000 1188 2abc 0000 0000 ef3d 23bc
000001e0: 0b87 18bc 4a27 b6bb 5c7a b93c 6136 06bc
000001f0: c7b8 a7bc e4aa 803c 0000 0000 5457 e33a
0.036244664 0.0 0.028410789 0.0 0.019712072 0.0 0.017087083 0.022477465
-0.00790809 0.024246627 0.0 0.005237359 -0.005330398 -0.015035604 -0.014101466 0.0
0.020291146 0.0 0.0 0.018352894 0.0 -0.0073869745 0.0 0.016440993
0.0 -0.0060054883 -0.006167354 0.0 -0.0071711577 0.0 0.009092422 0.006005052
0.007835406 0.0 0.0 0.01993798 0.020831231 0.0 -0.0073460373 0.018727645
0.014208931 0.0 0.0213087 -0.010616922 0.0 0.022518853 0.0 0.0
0.0 0.0 0.0 -0.007053528 -0.0048497207 -0.009199447 0.0008487571 0.0
-0.014655471 -0.012925385 0.0 0.0 0.0 -0.00092891604 -0.019357279 -0.0060054963
-0.006990423 0.014990211 -0.006005501 0.0063095773 0.0 -0.0060055014 0.0 0.0
0.0034180677 0.0 -0.0060055 -0.0060054995 0.0 -0.0035039214 0.021935558 0.0
0.011660369 0.016655127 0.022715798 0.0 0.00018013375 0.0 -0.006005499 0.009103231
-0.018304976 0.0 -0.0054095695 0.009340327 0.012143671 0.0034829497 0.004354087 -0.015589277
0.0034252685 0.0 0.0 0.0058161076 0.022184277 -0.005115964 0.015165478 0.0
0.022296559 0.0 -0.018063275 0.0 -0.0006224563 -0.008835226 0.01661128 -0.008375186
0.0 0.0 0.0 0.0022817312 0.0 -0.010408417 0.0 -0.009963497
-0.0093095405 -0.005558883 0.022641353 -0.008191676 -0.02047385 0.015706487 0.0 0.0017344751

convs.4.lin.weight f4 [128, 128]
00000000: f306 fbbd fa79 5f3b 6668 c1bd fdcd 7fbd
00000010: dec4 b53b 5b2f dcbc cfaf aa3c 2be3 ba3c
00000020: 29dc e9bc e711 c3bd 3ec6 b53d 8858 fb3c
00000030: ba01 a2bd 2eac f9bd ef81 0f3e acc1 d53d
00000040: 74e7 99bd fe7b 1ebd 1087 d53d b5e9 173c
00000050: 7001 09be 81ad b1bd 0511 a8bd 4088 eabb
00000060: c908 e13b dec7 033d d381 943d 4545 3f3d
00000070: 87f2 00be 5c75 f9bd 07ad b03d d1ba 053e
00000080: 0851 8b3d 6b91 8dbd fe74 b2bc 8e69 78bd
00000090: 3970 bdbd 5ca8 b83d 2054 e0bd e00b a8bd
000000a0: 76be 153e 3fcd a73d 98ee 0e3e 57e6 973d
000000b0: 52bb 83bb 46ee 85bb b380 c83d b490 15be
000000c0: 711b 053e 1888 863c 7c79 c0bd 063e ec3d
000000d0: 658a 92bb d80e bcbd 2b75 6fbd 1d05 6a3d
000000e0: f627 e13d 0fba af3d d1ff bfbd 6051 1ebd
000000f0: 166f 953a dc61 863d e07a f2bd 149a dd3d
00000100: b0fd 043e f604 0fbe 702d d4bb 4eaf 9fba
00000110: 3fb8 9d3c c0af c43d 00e8 263d 47cd 093e
00000120: 3689 d3bc 1b55 883d 37ca 23bc 911c 9b3d
00000130: 7e30 c13d 05a6 a2bd cc21 333d 0177 423d
00000140: 141e 883d 2577 52bd 598b ea3d f7e4 163c
00000150: 1212 c0bd 954d 803c f0ef 80bd d003 01bd
00000160: d65c 263e e3b8 053e 359b f43d 5217 80ba
00000170: c420 18bd 5c99 913d c380 773d 7045 96bd
00000180: ede8 85bd 6f4a 95bd 226b efbb 7fe5 dcbd
00000190: 6312 883c 2c51 e93d 52ac 06be d3c3 6dbd
000001a0: 3b9f 973d 6a03 f23c ab37 a9bd 6c64 953d
000001b0: 09d4 04bd b4ed 113e c784 f4bd 453a 043e
000001c0: 901e cabd 376e e93d f362 143e e94e 483d
000001d0: 3c57 93bb 9fd7 76bc 705c 713d 5784 51bd
000001e0: 983b 053e 7e5d 91bd 9398 053e 203d c63d
000001f0: d2a1 393d dde9 0c3d 3513 b03d f38f 2c3e
00000200: 21fd 0cbe 845f cabc 5f97 16bc 194d 3a3c
00000210: 3219 643d 2307 3e3d 617b 9e3d 46b3 0b3e
00000220: 0ef4 9bbd c271 2c3d 98a2 75bd d709 673d
00000230: 2f97 37bd 99b8 053d d00f ed3d 4552 96bd
00000240: b89d 0cbe 8cf4 123d 85c9 aa3c d17e d63d
00000250: e73d 073e 9c01 7a3d 0f80 0a3b 93a6 433d
00000260: c913 eabd f81a 1cbc dd83 17bd f446 00be
00000270: 88e2 07be acbc f9bd e5fd 08be 010a 7dbd
00000280: 552e c43d 9e9f 12bd e943 04bb 5c01 05be
00000290: 01f2 17be d089 af3d 24b9 193d 1a21 a03d
000002a0: 2d81 1a3d 9e60 87bd ec44 093e 477b c3bd
000002b0: 0c2e d03d 1c46 02be e9e1 78bc 672f 12be
000002c0: a7d1 903d 9e85 a4bd 9a49 133e 2f9e 76bd
000002d0: 9c83 6d3c 9c61 62bd 046a f23c c423 12bd
000002e0: 4198 7cbd 15b5 f7bd 4e7c cb3d cef9 073e
000002f0: df5e 773d 41de 0b3e d493 893d 6284 12be
00000300: 00ef 813d 6a7a f03a b2b7 b1bd af79 9e3d
00000310: 6211 193e d988 013e 35a0 b53d a21f f03c
00000320: c64b f93d cefc 773d 8272 88bd 612d 3b3c
00000330: 00f9 08be 2eab fb3d ebe8 d1bd 3cdc 06be
00000340: 1064 3ab8 6bc1 8539 ceca a1bc 081c 533d
00000350: 4c92 bd3d fffa ae3d ce70 fa3d 9215 35bd
00000360: 5543 6fbb c230 b9bd 78ff 6a3d e98c 3bbc
00000370: 1624 9d3c e9d0 d23d 2f42 8ebd 1ebd c2bd
00000380: 5119 3cbd 1bf8 f4bd e366 bbbd ce19 93bd
00000390: 5109 a2bd e55c 6d3d b87c 7e3d 12de f6bd
000003a0: ff58 c4bd e5fc fd3d d081 19be 3d63 bc3d
000003b0: 6428 cf3d ee11 dcbd 7f71 063e dc47 7cbd
000003c0: db62 6abd 72d4 60bd 7c28 e13d c42f 40bd
000003d0: d73c 093e 5e1d 023e 4b2b 8b3c 2321 f5bd
000003e0: 1a39 53bc b502 debc 44a1 c2bd d360 023d
000003f0: ee83 e2bd 02e2 18bd a2af 4fbd 8103 18bd
-0.12257185 0.0034099803 -0.094437405 -0.062452305 0.00554715 -0.02687805 0.020835785 0.0228134
-0.028547363 -0.09524899 0.08875702 0.030681863 -0.079104856 -0.12191044 0.1401441 0.104373306
-0.07514849 -0.038692467 0.10426152 0.009272029 -0.13379455 -0.08675671 -0.08206371 -0.0071573555
0.0068675024 0.03217303 0.072513245 0.04669692 -0.12592517 -0.12180588 0.08626752 0.13059546
0.06802565 -0.06912502 -0.021784302 -0.06064754 -0.092499204 0.09016487 -0.109535456 -0.0820539
0.14623436 0.081934445 0.13958204 0.07416981 -0.004020133 -0.0040872423 0.097901724 -0.14605981
0.1299875 0.016422316 -0.09398171 0.115352675 -0.0044720643 -0.09182519 -0.05846135 0.057133783
0.1099395 0.0858041 -0.09374965 -0.038651824 0.0011400904 0.06561634 -0.11839843 0.10820404
0.12987399 -0.13966736 -0.006475143 -0.0012182982 0.019252894 0.09603834 0.040748596 0.13457213
-0.025822263 0.066568576 -0.009996942 0.07573808 0.09433077 -0.07941822 0.043733403 0.047476772
0.06646362 -0.051383156 0.1145236 0.009209863 -0.09378447 0.015661994 -0.062957644 -0.031497777
0.16246352 0.1305881 0.11943666 -0.0009772575 -0.037140623 0.07109329 0.06042553 -0.07337463
-0.06538568 -0.07289588 -0.0073064724 -0.107859604 0.01661033 0.113924354 -0.13151672 -0.05804808
0.07403418 0.029542644 -0.08262571 0.072945446 -0.032428775 0.14250833 -0.11939388 0.12912853
-0.098691106 0.11397975 0.14490871 0.04890338 -0.004496483 -0.0150660565 0.058926046 -0.0511516
0.13011014 -0.0709791 0.13046484 0.096796274 0.04532034 0.034402717 0.085974135 0.16851787
-0.13768436 -0.024703749 -0.009191363 0.011370921 0.05568809 0.046393525 0.077383764 0.13642606
-0.07614909 0.042100675 -0.059969515 0.05640587 -0.044821914 0.03264675 0.115752816 -0.073399104
-0.1373204 0.03587775 0.020848045 0.10473407 0.13207208 0.06103669 0.0021133458 0.04776628
-0.11429555 -0.009527914 -0.03699099 -0.12527066 -0.13270009 -0.121941894 -0.13378103 -0.06177712
0.0957915 -0.035796754 -0.002018208 -0.129888 -0.14838411 0.085712075 0.03753008 0.078188136
0.037720848 -0.06610225 0.13405198 -0.09544998 0.10165033 -0.12722057 -0.01519058 -0.14275895
0.07071238 -0.08033298 0.14383546 -0.06020945 0.01449671 -0.05526887 0.029591568 -0.03567864
-0.06166864 -0.120950855 0.099358186 0.13278887 0.06039321 0.13659002 0.06717649 -0.14308313
0.06344414 0.0018347029 -0.08677615 0.07738053 0.14948037 0.1264986 0.08868448 0.029311959
0.12172656 0.060543828 -0.06662466 0.011424393 -0.13376236 0.12288509 -0.10249504 -0.1316995
-4.4439046e-05 0.00025511844 -0.019750025 0.051540405 0.092564195 0.085439675 0.12228547 -0.044210024
-0.003650864 -0.09042503 0.05737254 -0.01144717 0.019182246 0.10293753 -0.06946217 -0.095087275
-0.04592258 -0.11961385 -0.091504835 -0.07182656 -0.07911933 0.05794992 0.06213066 -0.12054075
-0.09587287 0.124017514 -0.14990926 0.09198616 0.10115126 -0.10745607 0.13129233 -0.061591968
-0.057223182 -0.054890104 0.1099405 -0.046920553 0.13402115 0.12706515 0.016988417 -0.11969211
-0.012892032 -0.0271009 -0.09503415 0.03183062 -0.1106032 -0.037324913 -0.050704606 -0.037112717

convs.5.bias f4 [128]
00000000: 79ea 023d f33d 223d 0000 0000 0000 0000
00000010: 175c 70bc 7b00 883c 285e d63c 620c 45bc
00000020: 0000 0000 ac16 6fbc c006 0d3d f2b7 b6bb
00000030: 5e53 15bc 0000 0000 ba13 5fbc 0000 0000
00000040: b751 313c 7aa4 233d 26d2 f0bc 0000 0000
00000050: cac9 c4bb a7bb 6ebc bdc9 c4bb 0000 0000
00000060: 60b4 333d 0000 0000 0000 0000 0000 0000
00000070: a0c3 293d 1438 1c3d b3b4 273d b4c9 c4bb
00000080: dcca 1a3d 439f 5d3c 3d04 fbbb 8419 0a3d
00000090: a6cf 343d 8c32 fdba b18e 3b3c 96b6 04bc
000000a0: 340d 923c 0000 0000 0000 0000 257f f93b
000000b0: c025 1b3d 1e83 223d 0000 0000 0000 0000
000000c0: bf1d 1e3d 0000 0000 5774 ea3c 7c78 be3b
000000d0: 4821 a9bb 4828 33bc 0000 0000 aeb5 2a3d
000000e0: 0000 0000 0000 0000 0000 0000 0000 0000
000000f0: beb4 103d 57e5 263d c7c9 c4bb 8e0f 85bc
00000100: dca8 033d db3f 363d 0000 0000 fa8a 55bc
00000110: 5dc8 04bc 4573 e0bb 0000 0000 a629 13bb
00000120: 0000 0000 0000 0000 c7cc 363d 0000 0000
00000130: 0000 0000 0000 0000 0000 0000 0000 0000
00000140: 5527 b6bb 0e86 35bc 0000 0000 0000 0000
00000150: 6927 56bc 227f 0abc 7445 26bc 0000 0000
00000160: cfc9 c4bb d780 4c3b 7940 19bc 77da 213d
00000170: ebbc 9dbc 0000 0000 b5c9 c4bb d309 ac3c
00000180: 0000 0000 0000 0000 c95f 183d d75b 5fbc
00000190: 0000 0000 0000 0000 59a5 01bb 7919 243d
000001a0: 0000 0000 0000 0000 b08c 133d 0000 0000
000001b0: de1b febb 2f8d 60bc 7482 aebb e976 2b3d
000001c0: 1086 52bc 642d 2f3d 0000 0000 104c 3dbb
000001d0: bcc9 c4bb d1aa 203d b908 61bc bfc9 c4bb
000001e0: 5c56 883b 0000 0000 50e2 a2bc cdc9 c4bb
000001f0: 023e 29bc e6e0 20bc 710d 33bc 13a1 183d
0.03196189 0.03960986 0.0 0.0 -0.014670393 0.016601792 0.026167944 -0.012026878
0.0 -0.014592808 0.034430265 -0.005576127 -0.009114115 0.0 -0.013615543 0.0
0.010822705 0.03995178 -0.029397082 0.0 -0.0060055004 -0.014571107 -0.0060054944 0.0
0.04387319 0.0 0.0 0.0 0.04144633 0.038139418 0.040943813 -0.00600549
0.037791118 0.0135267405 -0.0076604174 0.03371574 0.04414334 -0.0019317432 0.0114475945 -0.0081001725
0.017828561 0.0 0.0 0.0076140338 0.037877798 0.039675824 0.0 0.0
0.038602587 0.0 0.028619928 0.0058127027 -0.005161438 -0.010934897 0.0 0.04167717
0.0 0.0 0.0 0.0 0.03532862 0.04074606 -0.006005499 -0.016242769
0.03214346 0.04449449 0.0 -0.013033623 -0.008104411 -0.0068496787 0.0 -0.0022455244
0.0 0.0 0.044628885 0.0 0.0 0.0 0.0 0.0
-0.005558888 -0.011079324 0.0 0.0 -0.01307092 -0.008453162 -0.010148395 0.0
-0.006005503 0.0031204724 -0.00935375 0.039514985 -0.019255122 0.0 -0.0060054907 0.021000778
0.0 0.0 0.037200723 -0.013632736 0.0 0.0 -0.0019782393 0.040063355
0.0 0.0 0.036022842 0.0 -0.007754787 -0.013705536 -0.00532561 0.04186145
-0.012849346 0.042767897 0.0 -0.0028884448 -0.006005494 0.039225403 -0.01373499 -0.0060054953
0.0041606855 0.0 -0.019883305 -0.006005502 -0.010329725 -0.009819245 -0.010928498 0.037262987
